AI_project/code/logs/experiment/0418-policy_gradient-2024.04.18-19-13-25/PCT-0418-policy_gradient-2024.04.18-19-13-25_2024.04.18-19-13-26.pt (torch, 237277 bytes, 24 tensors)

actor.init_internal_node_embed.0.weight f4 [32, 7]
00000000: 36ff 993e eb79 a3be a355 bdbd ecb2 24be
00000010: 6bf3 f63e b613 623e 6ea0 37be 7a0f 33bf
00000020: a756 8d3d b450 913e 607f 11be 989c 86bd
00000030: 1111 363e c7a2 82be 0c33 e43d 9bbe 9a3e
00000040: 246c 18be 7957 7f3e d30b f43e 96b3 5cbe
00000050: 3cde cabd f150 863e 50ba d73e deed c8be
00000060: ad5d cb3d 32ec 87be d9b5 5d3e b26b 88be
00000070: 7ef6 8abe 60cb 073e 8403 a23d 77fa 0c3f
00000080: 85bc b9bc bdc8 03be f334 4fbe 8e6d be3e
00000090: e777 c13d fc73 783e 1b58 dfbe a3a2 ef3e
000000a0: ec64 093f 3cf4 c4bd 13ba 07be 3f6e bb3e
000000b0: 74f6 96bd 0d54 16be c936 083e 01c6 babd
000000c0: d62a 50be 851b 17be a21d 173e e406 50be
000000d0: df7c 9e3e a46c b73d 7518 82bc 4631 cabd
000000e0: 1673 013e a2b0 8bbe e01b 1a3e fedc b4bd
000000f0: b669 8cbd bdf8 7bbd 156f a0be d327 c13d
00000100: 2170 f0be 38bf 99be f7a1 f9bd c00b 83bd
00000110: 5497 01bd ce2f 1abc fbf1 eebc d009 633d
00000120: c3bf 233e 2d2d c7bc e7ea 51bd cb78 0dbd
00000130: ac29 933b 0b4f 8bbe e384 a7be fb72 d5bd
00000140: 8e1b 8cbd 0356 dabd 2b8b 513a 6314 7bbe
00000150: 4398 dfbd 6edb bb3d f285 053e 3d93 9d3c
00000160: e979 433e 4b97 7abe fa03 fc3d 59d5 83be
00000170: 8aef a2be 01cf 903e c5f1 b13c 5e74 0dbe
00000180: d5b6 92be ea7f 3b3e 8bfd b13d acc5 643e
00000190: 3b7e 6dbe 78c8 b83a 2153 5bbe cf6f 563e
000001a0: 3233 c43e 63d1 ec3d 2151 633d b653 1f3d
000001b0: a812 8cbe d480 e1bd 109c 03bf 0e9c a6be
000001c0: 2d91 cf3d 1958 ffbd a3ed f03e 3e95 f73b
000001d0: 46d1 1b3e a875 34be db99 113f 00a8 38bd
000001e0: b670 33bd c626 613d 97cc 1d3e 9e5c ccbe
000001f0: 11c4 d73e e35d cebe 1bba 23bd 0e86 623e
00000200: 6173 a7bd 2d44 a1be bfb3 833e 50a7 68bd
00000210: 1f1b bbbc 1e0f cb3e ceed 02be 1bf9 98bd
00000220: c7bf 1a3e 87ac d5bd 0eae 86bd 31dd 8d3e
00000230: 6302 463e c9ab 17bf 8677 803e 187f f6bd
00000240: 0760 a9be cddb b13d 8dbe 99bd 2047 27bd
00000250: 0ef5 01bf 1810 3abe 6bbf ff3e 3f5a a73e
00000260: 3859 63be 40c0 94be 30c5 533e 56bc 5cbc
00000270: f01a 1abe 6a10 a83d ca33 39bd d069 c93d
00000280: 692b a9bc 3e2d 213e 619d 1c3d f218 183e
00000290: 3e6a 99bd 7919 ea3c 6950 87be fb73 dbbe
000002a0: b7d4 afbd a963 46be b697 d63d f028 c63d
000002b0: 6ba8 1f3f 927d 943e 6088 34be d90f b3be
000002c0: 9ab0 123e cd86 213e 4afc 80be 1192 e63a
000002d0: 2db5 f2bc bfb6 aa3e ed42 c1be cfcc 903c
000002e0: 8868 30be 99d4 21be 8663 5e3e 59a3 38be
000002f0: f1b3 2ebe 0a24 91bc 7932 17be a4d9 14bf
00000300: e46c 713d e26a 39be f119 67bc 08dd 863d
00000310: 8649 cfbc 8444 893c cbf6 933d 35fa 9bbe
00000320: bf8e 143c af29 abbe 5751 83be b9e8 69be
00000330: 89dc 5cbe e808 30bf ec17 26bf e5c4 9c3d
00000340: 5a88 56be 9d51 323e 97eb 913d b7f9 f23d
00000350: 22f2 4d3e aa70 b7be ecef b2be 11f5 1c3e
00000360: a35b b7be 6192 073f c0c6 4c3e c991 163e
00000370: 8b89 22bd 4f38 b6bd c566 23bf 10e4 1bbe
0.30077523 -0.31928954 -0.092448495 -0.16083878 0.48232588 0.22077832 -0.17932293 -0.6994549
0.06901293 0.28381884 -0.14208746 -0.06572837 0.17779948 -0.25514814 0.11142549 0.30223545
-0.14885002 0.24935712 0.4766527 -0.21552882 -0.09905669 0.26233628 0.42134333 -0.39243978
0.099299766 -0.2654739 0.216514 -0.26644665 -0.27141184 0.13261175 0.07910827 0.5506968
-0.0226729 -0.12869544 -0.20235042 0.3719296 0.09446698 0.24262995 -0.43621907 0.4680377
0.5366962 -0.096168965 -0.13254575 0.3660755 -0.07371226 -0.146805 0.13302149 -0.091197975
-0.2032884 -0.14756592 0.14757398 -0.20315129 0.30954644 0.089562684 -0.015880803 -0.098726794
0.12641558 -0.27283198 0.15049696 -0.088312134 -0.068561 -0.061516512 -0.3133475 0.09431424
-0.46960548 -0.300287 -0.121890955 -0.063987255 -0.03163846 -0.009410812 -0.02916812 0.05542928
0.1599112 -0.024313534 -0.05124941 -0.034539025 0.0044910517 -0.27208742 -0.32718572 -0.104223214
-0.06841193 -0.10660937 0.0007993455 -0.24519496 -0.109177135 0.09172712 0.13039377 0.019235248
0.19089474 -0.24471776 0.12305446 -0.2574871 -0.3182338 0.2828293 0.02172173 -0.13813922
-0.28655115 0.18310514 0.086909376 0.22341031 -0.23192684 0.001409783 -0.2141843 0.20941089
0.3832031 0.11563375 0.055497292 0.038898192 -0.27357984 -0.110109 -0.5141001 -0.32540935
0.10135112 -0.12467975 0.47056302 0.007555633 0.1521655 -0.17623007 0.5687539 -0.045082092
-0.04380866 0.054968618 0.15410076 -0.3991441 0.42141774 -0.40306005 -0.039972406 0.2212145
-0.08176304 -0.31497326 0.25723073 -0.056800187 -0.02284008 0.3965997 -0.12786028 -0.07469388
0.1511222 -0.104332976 -0.06576167 0.27707818 0.19336848 -0.592465 0.2509119 -0.1203596
-0.33081076 0.08684502 -0.07507048 -0.040839314 -0.5076455 -0.18170202 0.49950728 0.3268604
-0.22202003 -0.29052925 0.2068069 -0.013472637 -0.15049338 0.08206256 -0.045215406 0.09834635
-0.020650582 0.15739915 0.038236026 0.14853266 -0.07490967 0.0285766 -0.26428536 -0.42861924
-0.08585494 -0.19373955 0.10478155 0.09675777 0.6236636 0.29002053 -0.17630148 -0.34973028
0.1432518 0.15774079 -0.2519248 0.0017591139 -0.029627407 0.3334255 -0.37746373 0.017675785
-0.17227376 -0.15803756 0.21717653 -0.18031062 -0.1706083 -0.01771738 -0.14765348 -0.58144593
0.058941737 -0.18107179 -0.014105306 0.06585127 -0.025303613 0.016756304 0.072248064 -0.3046433
0.009067236 -0.3343024 -0.25647995 -0.22842683 -0.21568502 -0.6876359 -0.6488025 0.07654742
-0.20950451 0.17413945 0.07125013 0.118640356 0.20111898 -0.35828143 -0.3494867 0.1532786
-0.358121 0.5295773 0.19997692 0.1470405 -0.039681952 -0.08897459 -0.6382869 -0.15223718

actor.init_internal_node_embed.0.bias f4 [32]
00000000: 3c4f 56b6 5d8e a734 5ab7 8ab6 f310 b6b5
00000010: b5bd 0b36 d129 42b6 27f3 9335 5698 c236
00000020: ee74 bc33 752e 9733 1b99 a6b4 bc0f cb33
00000030: 5a55 7db5 cb21 4f33 90cd 5d36 9750 e932
00000040: a56b 4236 b478 c1b5 066e 6635 619a 41b5
00000050: fda6 03b3 0bea 3bb6 adb9 a634 6550 17b5
00000060: b4a7 46b4 55ac 01b5 17be e3b4 da24 8833
00000070: db08 9a33 fc39 54b3 197f 7933 45cb 2d30
-3.1934605e-06 3.1209757e-07 -4.1340654e-06 -1.356499e-06 2.0823038e-06 -2.8932593e-06 1.102312e-06 5.799385e-06
8.7757016e-08 7.039936e-08 -3.1031308e-07 9.455786e-08 -9.437405e-07 4.8226678e-08 3.305122e-06 2.7161418e-08
2.897091e-06 -1.441475e-06 8.584178e-07 -7.2122754e-07 -3.065269e-08 -2.8001402e-06 3.1055006e-07 -5.6368873e-07
-1.8501197e-07 -4.830702e-07 -4.2420353e-07 6.339697e-08 7.1727946e-08 -4.9412833e-08 5.8090425e-08 6.3225897e-10

actor.init_internal_node_embed.2.weight f4 [64, 32]
00000000: d7a9 80be 6098 32bd a876 cd3e 6bf2 aa3e
00000010: ad4d 8f3d ddd5 153c bed9 1b3c 6979 b13e
00000020: 3962 bcbc d6ca bcbb d3d6 58be cce2 3dbe
00000030: 2734 9abd ed9e dc3d 3565 553d 1264 72be
00000040: 3b14 1dbe 4206 553e 8a50 3c3d c7c8 cdbd
00000050: 45e7 9bbd a71c 4b3d 22ff d7bd 550d 15be
00000060: 5237 bdbc ef59 c4bd 943f be3d f4ba 0fba
00000070: 4e32 8f3e c669 11be f536 1b3e c37e cc3c
00000080: 8e62 a2bd fb37 4ebe f609 b03d 4cd3 de3e
00000090: 7127 02be 6ec3 a1bd 1f04 ae3b 69e0 84bd
000000a0: 89e2 583e 3100 033e 7296 da3d c85c 2b3e
000000b0: 27d7 7dbe f837 1a3d fd48 88be bf70 283e
000000c0: a51f 123e 7f69 9abe d0b5 923d 65d1 6d3e
000000d0: b2ba 7dbe ce66 953e 03ef aa3d d49c 733e
000000e0: 2268 823e 9013 34bd 4701 173e d8c9 143e
000000f0: 0058 933d d0d5 bbbd 5dbd 51be 0151 a93e
00000100: 75a7 9c3e abc3 bcbd a71d 04bd aa9d d23d
00000110: a44c b2be 2b14 82bd 045b 9bbb 1ab6 b9bd
00000120: f5b9 13be 41e2 083e 22d3 1bbe 8c3c 29be
00000130: b39d 6bbe c828 5ebe 85e0 5a3e 1a7b 39be
00000140: 24a1 423d 7633 3ebd 9fba 2abb 61e3 18be
00000150: 6f9e f3bd 42e1 293e 988b 85be 4f51 d5bd
00000160: da07 aabc 65a2 683e bc03 933e ec45 68bc
00000170: 4fdb 1dbe 8caa a7bd 7bd9 373e 8580 69bd
00000180: d884 16be 758e cebd 4eb0 613e 156b aa3d
00000190: f927 903e 8423 1fbe 9d5e 45bd db39 5f3e
000001a0: 368b a1bd 998f 99be 57cb 813e d08a bbbd
000001b0: 1214 6abe 1304 4dbe cab1 ac3d 90f4 5b3e
000001c0: a8be 413e 5fe3 ec3d ae7f 773d 2502 f3bd
000001d0: 91c4 d0bc ee58 85be 5761 7a3c 25f9 1f3d
000001e0: 05eb 483e 6c7b d63d 0f0c 153e d803 c83d
000001f0: acb5 d3be 7308 8f3d 43f9 a03e 65e4 923e
00000200: ea39 a23e 036c 8eba abec 61bd 32ef 423e
00000210: 44b8 4a3d 4d27 82bd 0f90 9ebd 2e90 8b3e
00000220: 9226 203e 4c0a 1e3e 1546 3c3e 4ed8 7abd
00000230: 390b 8ebe 241b f2bd 145e c3bc 8e83 bfbe
00000240: e22f e13c a39a 6dbe 81e9 923c ab32 173e
00000250: 50d4 fcbc 3646 5fbe 3df7 38be a06a 983d
00000260: c3bb 6abe b99e 163d 48e2 3bbe 9cb2 813d
00000270: a1b1 93be ed98 7e3d 74bc 02be eda4 30be
00000280: c3e7 0dbe 4928 e8bd 64a6 4bbe ca98 8bbd
00000290: f7e7 f73a 4f4d 04bd 0169 e6bd e87d 573e
000002a0: 6d10 5b3e 6d2a 41be 2c2e 1dbe fb75 94bd
000002b0: fb63 00be fc90 8e3d 75b6 3ebe 89d6 20bd
000002c0: 89f5 11bd 3913 b5be 1085 343e 939b 88bd
000002d0: dae0 f13c af4c d5be d81c 933e cd88 3fbe
000002e0: e707 9abd 9313 f63d a7d9 14bd 136d 40bd
000002f0: 75e9 c83d 7d87 d83d 1956 433e 4f53 48be
00000300: 2f7f 573d b3a0 c2bd 8a84 4c3c 9589 41be
00000310: af28 68bc b4af ef3e 058d de3d ccac 13bd
00000320: f88f a23d c8a0 5c3e d10f 9abe ab94 0f3e
00000330: f44e 41be 23be 90be 9cfc 49bc 88cb 5abc
00000340: 60a8 363d a0df 06be ca1e acbe 8dbb b2bd
00000350: c2a9 5d3d 090b 74bd fb85 9bbe 3b69 6a3e
00000360: ba43 3d3e 335f bbbd 28d6 cdbd fddc ebbd
00000370: a668 51bd 58ae a33e 3dab 043e fe00 213e
00000380: e052 5e3c 04ca ee3d 262b e3be 397c ebbd
00000390: 662d c93d 32e6 83be 1d7a 93bd a38c 0ebc
000003a0: dcdf c23e 40c2 903d b679 db3d fa89 91bd
000003b0: 54a4 f33d 6ea2 95be dc8b 61bd f301 f43d
000003c0: 7d51 33be 36cc 81bd 3a71 073e bb25 823d
000003d0: 5b54 64bd c09d 39be c1d4 0bbd eaf5 303e
000003e0: a029 13bd 34e8 603e aee7 f1bd 7e31 22be
000003f0: 19ae ae3c 886b bebe f1d1 eebd 8cc0 a93e
-0.25129578 -0.043602347 0.4012959 0.33388075 0.06997237 0.009145227 0.009512363 0.3466294
-0.022996055 -0.0057614846 -0.21175699 -0.18543547 -0.075294785 0.107725 0.05209847 -0.23670986
-0.15339749 0.20803168 0.045975246 -0.10048061 -0.076124705 0.049587872 -0.105467096 -0.14555867
-0.023097668 -0.09587466 0.0928947 -0.0005482875 0.27968067 -0.14200506 0.15157683 0.024962788
-0.07928954 -0.20138542 0.0859565 0.43520582 -0.12710358 -0.078986034 0.00531055 -0.06488115
0.21180166 0.12793042 0.106732264 0.16734612 -0.24789105 0.037651032 -0.26618186 0.16449259
0.14269884 -0.30158612 0.07163584 0.23224409 -0.2477825 0.29179996 0.08346369 0.23790294
0.25470072 -0.04396397 0.14746581 0.14530122 0.07194519 -0.09171641 -0.20482393 0.33069614
0.3059651 -0.09217008 -0.03225484 0.10283978 -0.34824097 -0.06351503 -0.0047410745 -0.09067936
-0.14426406 0.13367559 -0.1521726 -0.16527003 -0.23009376 -0.21695244 0.2137471 -0.18113366
0.047516957 -0.046435796 -0.0026051176 -0.14930488 -0.11895453 0.16589835 -0.26083064 -0.10415899
-0.020755697 0.22718199 0.28713787 -0.014176827 -0.15415691 -0.08186826 0.17954056 -0.05700733
-0.14699113 -0.10085765 0.22039911 0.083212055 0.28155497 -0.15540892 -0.048185933 0.21799414
-0.078878805 -0.2999237 0.25350448 -0.09157336 -0.22859219 -0.20021085 0.08432348 0.21480012
0.18920386 0.11566805 0.0604245 -0.118656434 -0.025484355 -0.2604441 0.015281997 0.039055962
0.19620903 0.104727596 0.14555381 0.09766358 -0.41349542 0.069840334 0.31440172 0.28689876
0.3168481 -0.001086593 -0.055157345 0.19036558 0.049492136 -0.06355152 -0.07742321 0.27258438
0.15639713 0.15433615 0.18386109 -0.06124144 -0.27742937 -0.11821583 -0.02384857 -0.37405056
0.027488653 -0.2320352 0.017933609 0.14765422 -0.030862957 -0.21804127 -0.18063064 0.07442212
-0.22923188 0.036772463 -0.18348038 0.06332895 -0.28846458 0.06215756 -0.12767202 -0.17250414
-0.13857941 -0.11335809 -0.19887692 -0.068162516 0.0018913735 -0.03230029 -0.11250497 0.21044123
0.21392985 -0.1886384 -0.15349644 -0.072490655 -0.1253814 0.06961247 -0.1862429 -0.039267097
-0.03563455 -0.35366228 0.17628884 -0.066702984 0.029526163 -0.41660067 0.28732944 -0.18704529
-0.075210385 0.12015452 -0.036340382 -0.04697902 0.098101534 0.10572717 0.19075812 -0.1956303
0.052611526 -0.09503307 0.012482772 -0.1890014 -0.014169856 0.46813738 0.10866741 -0.036053464
0.07937616 0.21545708 -0.30090192 0.14021556 -0.18877774 -0.28270063 -0.012328293 -0.01335419
0.04459417 -0.13171244 -0.3361724 -0.08727179 0.05411697 -0.059580836 -0.30375656 0.22891705
0.18482867 -0.09149017 -0.10050613 -0.115167595 -0.05112519 0.3196895 0.12955947 0.15723035
0.013569564 0.11659625 -0.44368857 -0.11498303 0.09823112 -0.25761563 -0.07201026 -0.008700523
0.38061416 0.070683 0.10716574 -0.07106395 0.118965775 -0.29225487 -0.05506502 0.11914434
-0.17511554 -0.06337778 0.13226786 0.06354853 -0.05574451 -0.18126583 -0.034138445 0.17281309
-0.03592837 0.21963578 -0.118117675 -0.15839192 0.02132325 -0.37191415 -0.11661137 0.33154714

actor.init_internal_node_embed.2.bias f4 [64]
00000000: af7e 6934 a21b 4336 c52d bbb5 ad67 a3b5
00000010: dd7c 02b6 4d9d 0a36 ba93 c635 fb40 8a36
00000020: 7afc 3eb5 b3a6 7f35 1142 88b6 c28a 8636
00000030: c56c 86b6 2e57 3ab6 21e9 dd35 f514 6f36
00000040: 3752 5d35 ef0d 1236 3d7f 09b6 c40f 06b6
00000050: 2b27 3236 5050 48b6 632e 6d35 0f78 c0b3
00000060: 3ed6 1836 fd62 b535 1423 1ab6 d0d8 22b6
00000070: 4ad0 04b6 1c50 da35 63cb 44b5 43a3 0436
00000080: d17f d4b5 5382 c334 5d5c 4636 60c3 8535
00000090: 8526 24b5 5949 58b6 fb13 98b6 3c17 b7b3
000000a0: 04d1 d235 b276 81b5 6c4b 91b6 6bea 3db5
000000b0: 4c92 cf35 8fc4 6234 4285 3235 f7a0 1b36
000000c0: 057e 1e36 7d56 5d35 6068 acb5 0670 9f35
000000d0: 3773 8a33 ae6e cc35 594a 49b5 c4ee 26b5
000000e0: b112 73b6 6e4a 5135 9136 dd34 f827 0cb6
000000f0: 4c0d 9e35 92cc 6035 e5d8 b1b4 04a4 41b5
2.1745903e-07 2.9073349e-06 -1.3945906e-06 -1.217462e-06 -1.944419e-06 2.0655164e-06 1.4795144e-06 4.120285e-06
-7.114792e-07 9.523748e-07 -4.060807e-06 4.0096647e-06 -4.0061736e-06 -2.7766905e-06 1.6533633e-06 3.5625974e-06
8.2448554e-07 2.1763806e-06 -2.0488653e-06 -1.9976733e-06 2.6546866e-06 -2.984907e-06 8.835688e-07 -8.962535e-08
2.277447e-06 1.351436e-06 -2.2968206e-06 -2.4266083e-06 -1.9790773e-06 1.6265581e-06 -7.3311656e-07 1.9764564e-06
-1.583243e-06 3.6416404e-07 2.9558062e-06 9.966134e-07 -6.1150814e-07 -3.2229202e-06 -4.532279e-06 -8.525828e-08
1.5707051e-06 -9.645794e-07 -4.330117e-06 -7.074911e-07 1.546528e-06 2.1119398e-07 6.6504083e-07 2.3190494e-06
2.3617188e-06 8.245477e-07 -1.2845376e-06 1.1879026e-06 6.447083e-08 1.5231396e-06 -7.4986525e-07 -6.218727e-07
-3.6220702e-06 7.7966877e-07 4.120416e-07 -2.088489e-06 1.1775787e-06 8.374419e-07 -3.312663e-07 -7.2136777e-07

actor.init_leaf_node_embed.0.weight f4 [32, 8]
00000000: 111d 4d3d 4321 0a3e 67e1 88bd 77be 983e
00000010: 1e4f b0bd eaed 283d be00 e33e 4fcf c33e
00000020: f7a1 ecbd 5ad6 bd3e fa53 f6bd 9e60 ab3e
00000030: eec0 05bd a2db a3be ee5f d83e 54fd 05bf
00000040: b43a 9e3d 731f ce3d 4e68 213e 9691 b7bd
00000050: 969b c03e 1f33 46be 2dde 20be 8459 f03c
00000060: 065d 7ebe 4316 6f3d 9161 6f3e 7141 55bd
00000070: e719 e73e 62a1 1dbd 10f0 d93d 42e5 9bbe
00000080: 0fb1 ee3e 7fc6 67bd 68e6 a93e 288b 89be
00000090: 6498 09bd ebc4 8c3d 36e0 543e dbdd ca3d
000000a0: b9ae a8be cb07 c43d 179e b43e 8346 a9be
000000b0: ec70 46be 0850 6bbe f1d8 933e 67bb f73d
000000c0: 7f2c b63e 229d 3d3e 3066 b03e 5fbe bc3e
000000d0: 87b2 b2be ba51 ec3e 6a72 1fbe 7c1c b9bd
000000e0: 457e fa3e 347d 903d edb0 6d3d 6f00 afbe
000000f0: 5c41 aa3e acc8 de3e fe27 bf3d bf2e 99bd
00000100: 780d 34bd 8305 023e 50ab 6ebe d5d9 d33e
00000110: 5d04 cd3d bea6 a33c bcac 42be 561c b8bd
00000120: 42cb 0abe 0887 c43e 59fe 6f3d c00a f03d
00000130: 3c5e 80be c12d 0c3e 06db f13d b801 433e
00000140: b525 58be dd98 713d 7b2a e43c 82ef c1be
00000150: e25e a8bd 913d bd3e 5644 133e 345f 833e
00000160: a42e a7be 1f79 1b3e d8d6 6cbd 956f 1a3e
00000170: 03ba c53d 21bf fe3e 8c17 663d 8178 093e
00000180: 4185 8cbe dfa2 99be 7de0 bfbe 5d19 afbd
00000190: 7af4 343e 0668 e13e 9be3 093e f955 04be
000001a0: a028 273e 3ee5 dbbd 4fb3 9d3e 051d d5bd
000001b0: 2c4c 64bd c3b8 bfbd 1f5c a7be b948 b83d
000001c0: 1ef8 a1be 4001 0a3f eba3 4c3e 86d6 283e
000001d0: eb9a 783d bf2e 3dbe 86b2 ca3d 8331 68bd
000001e0: 8a1e 36be d272 06bd 544b 803d 64fb 26be
000001f0: aa8f c63e 9626 18be 82e3 cf3d f3e8 663c
00000200: 0257 e93d f132 423e d1e4 a83e 16a9 a8ba
00000210: efd1 783d d3fb 0abd 701b fabd d88c 0a3f
00000220: a755 a73e ebc3 5a3e 076f c1be ab5d 4cbe
00000230: 492b 953d 6a52 363d 4906 f73d cb30 b7be
00000240: f430 9b3e 67b9 4ebe b5cd 2b3e b6aa c43e
00000250: 6f03 f5bd 64b9 2f3e deca 903e e59f 29be
00000260: 4ac2 b93d ceb4 62be 51d6 bdbe 840d 253e
00000270: 48b5 1d3f 6a8d f6bd 44b6 e83e aa4e 113f
00000280: c482 be3e 8e6d 2dbe 251f f8bd 4d76 0a3d
00000290: 6536 f6bc 5383 85be 23f0 9c3c 6474 723e
000002a0: 9454 063e af08 883e 3d99 dbbd 326e 19be
000002b0: 01a9 af3e c254 f1bd 39ae f7bd febc fa3d
000002c0: 0110 b33e 5ba3 163f 92e7 c7be d7a0 c9bc
000002d0: 2f07 35be df8b 53be 1d80 bebd 03fb 493e
000002e0: 8eba dd3d 8567 043f ee66 463d 0941 6fbd
000002f0: f505 803e 17a7 d23e 74ae 7b3e 600e 76bd
00000300: 98c9 823e 1b28 c63d 2091 85bc 11a7 e23e
00000310: f7fe da3e c002 a6bc 912e 10bf 1b2e 333d
00000320: 873c 893e 789c 1a3e 0a40 9c3e ec29 9cbe
00000330: 9ce9 823e c5e2 cf3d c57d 5d3e c9c4 d0be
00000340: 2ef4 40be 8a7c 91be ac70 8d3e c811 cf3e
00000350: 2f5f 5e3e a819 cd3e 0655 b2bd 44a7 70bd
00000360: 9642 0fbe cf72 de3d 43c1 933e a376 a0bd
00000370: c2d5 093e a1b8 95be 2c78 33be f7ff f6bd
00000380: fea3 c5bd 119b b63d a6cc 98be 41bb dfbd
00000390: 8cca 213e 31e3 a73d 4076 e3be fabf 98be
000003a0: f664 74be 8a7b d13e 5fde a93c 24bd 5d3d
000003b0: 3246 0a3e 26ae 8b3e b79c 24be c30a a93e
000003c0: 0385 08be 5c74 783c 51b3 d13e 1f17 883c
000003d0: e151 883e 864d 80bd c700 34be 13fd f03d
000003e0: 2a4c 3bbe 501e d73d de12 9ebe 1eeb edbe
000003f0: 0389 6fbe 409e 693e d1a6 c8be c410 c53d
0.050076548 0.13489251 -0.06683617 0.29832813 -0.086088404 0.041242518 0.44336504 0.382441
-0.1155433 0.370776 -0.12027736 0.3347215 -0.032654695 -0.32003504 0.4226069 -0.52339673
0.077260405 0.10064592 0.15762445 -0.08963315 0.37618703 -0.19355439 -0.15709753 0.02933956
-0.24840173 0.05837084 0.23377062 -0.052064363 0.4513695 -0.038483985 0.106414914 -0.30448347
0.4661946 -0.056585785 0.331836 -0.2686398 -0.033592597 0.068734966 0.20788655 0.09905597
-0.32945803 0.09571799 0.35276863 -0.3306161 -0.19379014 -0.22979748 0.2887645 0.12096291
0.35580823 0.18516973 0.34452963 0.36863992 -0.3490183 0.46156102 -0.15570989 -0.09038636
0.4892446 0.070551306 0.058030058 -0.34180018 0.3325299 0.43512475 0.093338 -0.07479619
-0.043958157 0.12697415 -0.23307538 0.4137713 0.10010598 0.01997697 -0.19011205 -0.0898978
-0.13554099 0.3838427 0.058592174 0.117208004 -0.25071895 0.13689329 0.118093535 0.19043624
-0.21108134 0.058983672 0.027852288 -0.37878042 -0.082212225 0.36961034 0.14381537 0.25658572
-0.3265277 0.15182923 -0.05782208 0.15081628 0.096546195 0.49755195 0.0561748 0.13424875
-0.27445415 -0.30007073 -0.37475958 -0.085497595 0.17671385 0.44024676 0.13465731 -0.12923421
0.16324091 -0.10737084 0.30800864 -0.10405926 -0.055736706 -0.093614124 -0.3268747 0.08998246
-0.3163461 0.5390816 0.19984405 0.16488084 0.060694616 -0.18474863 0.09897332 -0.056687843
-0.17785087 -0.032824345 0.06264368 -0.16306835 0.38781482 -0.1485847 0.101508155 0.014093625
0.113935485 0.18964745 0.32987073 -0.0012867774 0.060747083 -0.033931565 -0.122122645 0.5412116
0.32682535 0.213638 -0.3778002 -0.19957606 0.072836466 0.04451219 0.12061746 -0.35779414
0.30310786 -0.20187913 0.1677769 0.38411492 -0.119635455 0.17160565 0.28279775 -0.16564901
0.09070261 -0.22139284 -0.37077573 0.16118437 0.6160474 -0.12038691 0.45451558 0.56760657
0.3720914 -0.16936323 -0.12115315 0.033804227 -0.030055234 -0.26076755 0.019157475 0.23677212
0.13118201 0.26569125 -0.10722587 -0.14983442 0.34308627 -0.117837444 -0.12093777 0.12243079
0.34973148 0.5884301 -0.39043862 -0.024612827 -0.17678522 -0.20658825 -0.093017794 0.1972466
0.10826598 0.5172046 0.048438005 -0.05841163 0.25004545 0.41143104 0.24578267 -0.060072303
0.2554443 0.09675618 -0.016304553 0.44268087 0.42772648 -0.020264983 -0.56321055 0.04374514
0.2680399 0.1509875 0.30517608 -0.30500734 0.25568855 0.10150675 0.21630009 -0.40775135
-0.18843147 -0.28415328 0.27625024 0.40443254 0.21715997 0.40058637 -0.08707623 -0.058753267
-0.13990244 0.10861742 0.28858384 -0.07835128 0.13460448 -0.29242423 -0.1752631 -0.1206054
-0.0965042 0.08916295 -0.29843634 -0.10924388 0.15799922 0.0819763 -0.44426155 -0.29833966
-0.23866639 0.40914565 0.020735918 0.054135457 0.1350334 0.27281302 -0.16075407 0.33016023
-0.1333199 0.015164461 0.4095712 0.016612587 0.2662497 -0.062647864 -0.17578422 0.1176702
-0.18290773 0.105038285 -0.3087377 -0.46468443 -0.2339211 0.22814274 -0.3918977 0.096223384

actor.init_leaf_node_embed.0.bias f4 [32]
00000000: e88c ab35 38ef 3a36 5000 89b6 e790 7236
00000010: a094 80b4 36e9 b3b2 d447 0237 85ad 8036
00000020: a13e 3e37 5250 5c32 ec1e 70b6 849c fab6
00000030: 358b d8b6 26a6 15b6 4735 0fb6 8daa 3db5
00000040: ecc5 cf35 8562 4c35 9911 b5b5 bb90 3cb6
00000050: e7a4 aa34 a010 08b7 0671 2636 ea26 1cb7
00000060: 9df9 feb6 3501 47b7 92fb 0a36 41a0 05b5
00000070: 2136 9b36 b194 f436 8bb4 a936 b5e5 9cb4
1.2781502e-06 2.7855403e-06 -4.0829545e-06 3.6145154e-06 -2.3949997e-07 -2.0944395e-08 7.765328e-06 3.8348976e-06
1.1339464e-05 1.2823948e-08 -3.5780786e-06 -7.4688014e-06 -6.4535075e-06 -2.2299441e-06 -2.1339672e-06 -7.065617e-07
1.5480305e-06 7.6139287e-07 -1.3490672e-06 -2.8098427e-06 3.178495e-07 -8.1101025e-06 2.4801716e-06 -9.307385e-06
-7.5988487e-06 -1.1861605e-05 2.0710036e-06 -4.977956e-07 4.6256614e-06 7.2890766e-06 5.0576105e-06 -2.9224398e-07

actor.init_leaf_node_embed.2.weight f4 [64, 32]
00000000: df28 cebd c664 aa3d 2f85 b0bc 5e06 b5be
00000010: f1b6 053c e203 8cbd e19e e3bd b2e9 84bd
00000020: a7bb 603c 77f4 c63e ed12 dbbb 839d 3e3d
00000030: 1391 2fbb aaf7 953c d34a eb3b 49c3 733d
00000040: ad47 81be f7fb 1cbe e244 2c3e cdd1 353c
00000050: d4ee fdbd 3007 053c 310f 343d dbab 263e
00000060: 6ce1 aa3e 641f 4c3c b696 853e 94fc 443c
00000070: a351 54be 8640 9c3d f2ba 05bf db3c c1bd
00000080: 8ad5 83bb e5ed e83b 1e28 aabe 2910 a63e
00000090: 908e bebe 9fdc 073e a8dd 29be 71e9 983d
000000a0: b7cf 99bb 8327 383d 976d ff3d 602b ce3d
000000b0: 9e88 f13d dfbc 82be d792 3abe eab5 a1bd
000000c0: 7b78 16be a25a f63d fc6c 0fbd 2cb3 e03d
000000d0: 104d dcbd 9a47 43be d86b c33c 0955 5b3d
000000e0: 68ba 823d 4283 f6bb bd45 653e 5ef9 7c3e
000000f0: 0662 2e3e ae35 03be 9d67 3abd 07f7 193b
00000100: f871 eabd bd90 2cbe 45ec 9bbe 9157 173c
00000110: efa8 593c 7661 f9bd c4e4 60be 0051 89bd
00000120: f815 2cbf aa8b b13e 8dd4 213d bd4b 79bd
00000130: bc74 733e febf 80bd 7dfa 70be c6b8 233e
00000140: 025a ce3c 19d9 f4bd a128 74be a4bd 493d
00000150: 9973 7a3e 59d5 8e3b 091a 6b3c b938 86bc
00000160: 84a0 4fbe 1ae4 8b3b f909 5ebd 71e6 9f3a
00000170: 98ca 9bbd b103 d9bc f360 a9bd 6cf0 76bd
00000180: 8b81 98bd f9f9 db3d d037 13be f2e0 5abe
00000190: 46c2 473d 7d54 a23d f650 033e 6aa4 2ebe
000001a0: b0d6 cfbd e714 ffbd 73a4 653c 4e90 973d
000001b0: 93b9 aabb 0515 8bbe 88f1 8b3e aa62 c6be
000001c0: 349b 583e cd5b c43d af8e 853d 4104 5dbd
000001d0: d1ea f53d 50f7 0f3e d4e0 9abd d8b5 42be
000001e0: d445 a9be 7ab3 863d 7708 f63d 5fe7 a63e
000001f0: 91d5 8fbd f8ca 32bd 3127 f7bd 4d0f dcbd
00000200: 8e2f 06be 57cc 80be 5aaf 99be ab4b c5ba
00000210: 536b 99bd c7ce c43d 4355 c8bc 65b2 c23d
00000220: 0f26 22bb 3b0e 99bd 224c c23c 95e9 babd
00000230: e018 243e 43e7 203e feb1 4cbe 9a1e 53be
00000240: c172 053b afe8 c13e 6ccf d83b 5939 49bd
00000250: b94f 843e 45f4 90bd bc63 59bd 807a e33c
00000260: 0f22 3d3e dcf8 8d3e d233 25be 470f 4f3d
00000270: f832 093e 5641 623d ccb2 86be b5e8 fc3d
00000280: 72ed 233e bce6 f93e e8b4 7dbc ec4c fbbd
00000290: 7bda 75be 8f22 90be c77a 493e 03fc d3bd
000002a0: 9862 27be f998 be3c 2fb2 c63d 1371 5abe
000002b0: b850 00be 3bfc b1be aded a7be 2d1e 983a
000002c0: f592 d7bd 2077 30bd a636 0bbe f65e 47bd
000002d0: dcbd 033e 135b 213e 187e 203e b80f 91bd
000002e0: 3e60 de3d 3eef 09be ee1f 79bd 4a77 27be
000002f0: b887 303e 8b2e 9cbe d858 163e 2015 05be
00000300: 7c90 293e 2120 f23d d1fa 38be 9f91 203e
00000310: ca39 96bc 1b9e 38be c0c2 16bd e3e1 e13d
00000320: 6501 9d3e f7c8 823e 780c 2cbe 1904 d93d
00000330: f645 f33c 1ebf e83e dfc7 0abe 09f8 79bc
00000340: 06a8 9ebe 13f7 4c3e b2fb 043c 1486 3cbe
00000350: 6415 6fbe 9deb 703e 5d70 3ebe f515 8bbe
00000360: 5394 95bd 571b df3d e13f 8dbe 1283 6abe
00000370: c545 41be 90fd 1dbd f377 283e f074 36be
00000380: 9544 8c3d 579a efbd 564d 9fbd 3d4e aa3d
00000390: 5d0d d13e 4996 233e ef13 2c3d 7669 c2bc
000003a0: 8448 ea3d 9dc0 203e da27 073c 7a59 f1be
000003b0: ddeb 06be 85e1 693e 72c6 2dbe 4707 1c3e
000003c0: c625 903d 87ef 99bd 61d6 6d3d bc12 b6bd
000003d0: a96a 6e3e 755c abbd 2ace c13d 68b1 4c3d
000003e0: 00ee 0dbc 8dc6 c4bd 2729 293e 4802 4b3d
000003f0: 9012 173e c66f 11bd f2eb 233d 3877 64be
-0.10066389 0.08320002 -0.021547882 -0.3535642 0.008161292 -0.06836678 -0.11114288 -0.06489886
0.013716615 0.38858387 -0.0066856057 0.046536934 -0.0026789352 0.018306572 0.0071805506 0.05951241
-0.25249997 -0.15330492 0.16823152 0.011097384 -0.123990685 0.008119389 0.0439598 0.16276495
0.33375108 0.012458656 0.26091546 0.01202311 -0.20734267 0.07629494 -0.5223838 -0.094354354
-0.0040232586 0.0071084374 -0.33233732 0.32434204 -0.37218142 0.13267754 -0.16588461 0.074664004
-0.004693951 0.044959556 0.124720745 0.10066867 0.11793636 -0.25534722 -0.18220077 -0.078960255
-0.14694397 0.120290056 -0.035016045 0.10971674 -0.10756886 -0.19070283 0.023855135 0.053547893
0.063832104 -0.0075229714 0.22389884 0.24704501 0.1702958 -0.12813446 -0.04550897 0.0023493187
-0.11447519 -0.16852088 -0.30453697 0.009237186 0.013284906 -0.12176792 -0.21962267 -0.06704903
-0.6722102 0.34676868 0.039509345 -0.060863245 0.23775 -0.062866196 -0.23533054 0.15988454
0.025189403 -0.119554706 -0.23843624 0.04925312 0.2445816 0.004358929 0.014349469 -0.01638447
-0.20276076 0.004269135 -0.05420873 0.0012199414 -0.07607001 -0.026491018 -0.08270445 -0.060287878
-0.07446583 0.10741038 -0.1437676 -0.21374872 0.048769258 0.07926271 0.12823853 -0.17054906
-0.1014837 -0.12455159 0.0140162585 0.07400571 -0.0052101105 -0.27164474 0.2733271 -0.3874715
0.21152955 0.09587822 0.06521355 -0.053959135 0.12007678 0.14059186 -0.07562414 -0.1901468
-0.33061087 0.06577201 0.12013333 0.32598397 -0.070231564 -0.043650597 -0.12068022 -0.10745106
-0.13104078 -0.251559 -0.30016595 -0.0015052458 -0.074911736 0.09609752 -0.024454718 0.09506682
-0.0024741923 -0.07473417 0.023717944 -0.091265835 0.16025114 0.1571322 -0.19989774 -0.20617142
0.0020362588 0.37872836 0.0066165235 -0.049126957 0.25842074 -0.07077841 -0.05307363 0.027768373
0.18470024 0.27728927 -0.16133049 0.05055168 0.1339835 0.05523809 -0.26308286 0.12349073
0.16008547 0.4880885 -0.015485026 -0.12270531 -0.24009125 -0.28151366 0.19675742 -0.10350802
-0.16346204 0.023266302 0.097019546 -0.21332197 -0.12530792 -0.3476275 -0.3279852 0.0011605673
-0.10526077 -0.043082356 -0.13595065 -0.048674546 0.12865394 0.15757398 0.15673101 -0.07083076
0.108582005 -0.1347017 -0.060821466 -0.16354099 0.17239273 -0.3050426 0.14682329 -0.1299634
0.16559023 0.11822534 -0.18064429 0.1568055 -0.018338103 -0.18029062 -0.03680682 0.110294126
0.30665126 0.2554395 -0.16801631 0.10596485 0.029696446 0.4545831 -0.13552807 -0.01525689
-0.30987567 0.20016126 0.008116649 -0.18410522 -0.23348004 0.2352738 -0.1859755 -0.2716519
-0.07303681 0.108938865 -0.27587798 -0.22901562 -0.18874271 -0.038571894 0.16452007 -0.17818046
0.068490185 -0.1169936 -0.077784225 0.08315704 0.40830508 0.15975298 0.042011198 -0.023731928
0.114396125 0.15698476 0.008249247 -0.47138578 -0.13175912 0.22839935 -0.16970232 0.15237151
0.07038455 -0.07516389 0.058065776 -0.08890292 0.23282875 -0.08367244 0.09463151 0.049973875
-0.008662701 -0.09608183 0.16519605 0.049562722 0.14753175 -0.035506986 0.040019937 -0.22311103

actor.init_leaf_node_embed.2.bias f4 [64]
00000000: ccac 3bb5 d8c0 bf36 1d28 99b6 da53 0bb6
00000010: f179 8cb6 b90a a236 f04f 1836 daf4 1837
00000020: 65bc c9b5 31fb e835 3125 0eb7 e28f 1a37
00000030: 9603 12b7 e04a b8b6 109b 0d36 5771 ff36
00000040: 0e6b a035 8f97 7336 6dd7 a2b6 06fc 87b6
00000050: 30ae 9b36 67c6 d0b6 3d2e d435 7c56 7235
00000060: a643 a436 e1fe 2636 5563 a0b6 e96a 95b6
00000070: 2062 a0b6 6527 5836 342b e1b5 03b6 9936
00000080: 0c11 3fb6 bf08 c134 33e3 aa36 c714 2236
00000090: 82b5 bab5 5480 dfb6 dbc9 1cb7 1771 8b35
000000a0: 660f 5c36 8d23 e6b5 e2e6 12b7 283f 5bb5
000000b0: 93e9 6036 6f30 89b2 d68b b435 07e6 b836
000000c0: a8ba ad36 2560 da35 bbc7 11b6 9138 4336
000000d0: 40fa 3334 8ab3 9536 2c19 d9b4 6a2f 61b5
000000e0: e3c5 edb6 9b0a b135 5f8b c535 24eb a8b6
000000f0: 0329 6836 cdda 8c35 c1d2 d3b3 915b 73b5
-6.991438e-07 5.7146935e-06 -4.564425e-06 -2.0761422e-06 -4.186521e-06 4.8292245e-06 2.2696295e-06 9.116915e-06
-1.5030497e-06 1.7358453e-06 -8.472519e-06 9.212616e-06 -8.703113e-06 -5.492344e-06 2.1100896e-06 7.6127867e-06
1.1952086e-06 3.629804e-06 -4.853055e-06 -4.052653e-06 4.639638e-06 -6.22198e-06 1.5808688e-06 9.0277877e-07
4.895456e-06 2.4884287e-06 -4.7799354e-06 -4.452992e-06 -4.779795e-06 3.2209439e-06 -1.677638e-06 4.5809443e-06
-2.847114e-06 3.5955415e-07 5.0928443e-06 2.4151975e-06 -1.3910906e-06 -6.6608573e-06 -9.345323e-06 1.038922e-06
3.2791518e-06 -1.7146682e-06 -8.756035e-06 -8.167576e-07 3.351456e-06 -1.5970924e-08 1.3451743e-06 5.510406e-06
5.1775314e-06 1.6270247e-06 -2.1722942e-06 2.909019e-06 1.6761715e-07 4.461447e-06 -4.0437715e-07 -8.388803e-07
-7.0861875e-06 1.3190614e-06 1.4718206e-06 -5.034164e-06 3.4594566e-06 1.0494492e-06 -9.863789e-08 -9.06578e-07

actor.init_next_embed.0.weight f4 [32, 6]
00000000: fb9b 8a3e 34e7 03be e99c fd3e bb51 4cbe
00000010: b76d a7bd 53da 68be 0bd6 a33d b5d3 e1be
00000020: 806d 5dbe 9099 003d 1d9e a23d 6208 01bd
00000030: 0f7c 61be 9ab3 9bbe 7245 613b a46a 973d
00000040: 9fa4 e03a 0b45 96be be55 4ebe c0d4 3d3d
00000050: 4689 643e b942 a6be 8c85 a1be 43d3 c4bd
00000060: 2c1b 87bd e46e 923e 3e6a 2bbd 6aeb acbd
00000070: cd75 77be 3ceb a7bd 7599 afbe 1c76 093f
00000080: 6cac c2be 90db 8a3d 1e4a 053d ee08 ac3d
00000090: 9666 d9be a5a3 283e c354 f53e ebf9 febd
000000a0: 5d1a f43d 1a54 23be bb4c c13d e1ea 8c3d
000000b0: 6c3c 13bd eae6 bb3e 1e8d 873e efef b53e
000000c0: 93c1 003e 5f59 d73e 1671 bf3e 899a 313e
000000d0: 1cc3 a7be ebaf 22be 56cf a33e bec8 c6bc
000000e0: cfde 8b3e 7825 b4bd 92c5 f4bc 8a10 9cbe
000000f0: 3a17 44be 0200 833e 5a7b 5dbe d6fc 57be
00000100: ae3f 32bf 2f2f e5bd 6a1f b7bd e2ad 90bd
00000110: 53e7 193e 871c 58be 22cb 1bbe 6627 853e
00000120: 7a70 29be 23fc 523e 174d 15bd 1661 a8be
00000130: cffc db3e 7124 bf3d ce4f 043f 1511 643c
00000140: 1cc9 693d 9237 73be 00e8 c3bd 0765 153f
00000150: b5e6 f93e c25f 153d 5001 4b3e 25c7 743e
00000160: b1c9 e0bc 1ce3 8ebe d262 44be 4337 14bf
00000170: 58cb e53d adf7 bdbe 4d9e e53b 1f01 0bbe
00000180: 3dd6 513e 11ae 8e3e 5ca6 04bf bfcf ddbe
00000190: 71de 0c3d 47b7 afbe 0a41 953d 3b7d 643b
000001a0: 2b92 363d 0500 7d3e bbfc 0fbd d3b9 2dbe
000001b0: 00dd 823e f435 95be 9b12 90be 6789 b43e
000001c0: 9133 cdbe ea60 b0be fcdf c43d 83f0 95bc
000001d0: f2ce bfbd 6afe aabe 0b46 c33e 353a 80be
000001e0: 79f7 acbc 5d46 853e db44 57bc e7e3 9fbe
000001f0: acb6 d5be 64bd 8f3e 7995 85bc 1db0 933e
00000200: 858b 463d 484d 0d3f add3 3a3e 68d9 05bd
00000210: 78a6 5a3e 7e8d 933e 3d43 983e 9336 203d
00000220: d4d0 96bc e29f cdbe 9b45 43be b917 3c3e
00000230: 3a5f d5bc f3fa 833e 2952 c53d 5bc0 4abe
00000240: bf6a cabe 0e5b 1bbe 92dc f13e 831a 533e
00000250: f672 a4be d17c b53e 071c 28be e408 ed3d
00000260: 2283 6f3e 31df 843d 4bcb a93e fe81 1b3e
00000270: dfc4 ac3d 0954 8c3d 71cc 61bd e514 953e
00000280: d2d6 8cbe 7219 cd3d f610 11be 4506 bb3d
00000290: c8d2 fdbc 3726 083d 7e90 51bb d0f6 9cbe
000002a0: 755b 94be a0df 26be cb9a c2be a914 9c3d
000002b0: b8a9 23be 9ce7 2fbe 311e b83e 66bc 363d
000002c0: 6b58 60be 12e1 b13d 4245 a1bd 623e a93e
000002d0: 4fec 67bd 19fe 9d3e a11e 833d 8c96 32bd
000002e0: b33c 8e3e 7ce4 46be 413d cabe 75f5 7cbe
000002f0: f523 dfbd 96be 9f3e 1234 c6bd 3598 8dbd
0.2707213 -0.12881166 0.49533775 -0.19953053 -0.08175223 -0.22739534 0.0799981 -0.44106832
-0.21623802 0.03139645 0.07940314 -0.031502135 -0.22019981 -0.30410463 0.0034373668 0.07393387
0.0017138905 -0.2934955 -0.20149896 0.046345472 0.2231799 -0.3247278 -0.315472 -0.096106075
-0.065969795 0.28600228 -0.041849367 -0.08443339 -0.24166031 -0.08199164 -0.34296766 0.53695846
-0.38022172 0.067801595 0.032541387 0.08400141 -0.4246108 0.16468675 0.4791623 -0.12450012
0.11919091 -0.15950051 0.09438463 0.06880737 -0.035946295 0.3669961 0.2647485 0.35534617
0.12573843 0.42060372 0.37390965 0.17344107 -0.32766044 -0.1588742 0.31994122 -0.024265643
0.27318427 -0.08796209 -0.029879365 -0.30481368 -0.19149485 0.25585943 -0.21629086 -0.21092543
-0.6962842 -0.1119064 -0.08941539 -0.070644155 0.1502965 -0.21104632 -0.15214208 0.2600662
-0.16546813 0.20603995 -0.03645047 -0.3288657 0.42966315 0.093331225 0.5168427 0.013920088
0.05707656 -0.23751667 -0.09565735 0.5835728 0.48808828 0.036468275 0.1982472 0.23904093
-0.027439924 -0.27907646 -0.19178322 -0.5789682 0.11220425 -0.37103024 0.0070073963 -0.13574646
0.20491882 0.27867177 -0.51816344 -0.4332256 0.034391824 -0.34319517 0.07287796 0.0034864682
0.04457299 0.24707039 -0.035153132 -0.16965418 0.25559235 -0.29142725 -0.28139195 0.3526108
-0.40078405 -0.3444894 0.09613034 -0.018303161 -0.093656436 -0.33397228 0.38139376 -0.25044408
-0.021114098 0.26030245 -0.013138975 -0.31228563 -0.4174093 0.2807418 -0.016306626 0.288453
0.0484729 0.55196047 0.1824481 -0.032678038 0.21352565 0.28818887 0.297388 0.039114546
-0.018410124 -0.40161043 -0.19069521 0.18368424 -0.026046384 0.25777397 0.096348114 -0.1979994
-0.39534566 -0.15171453 0.47238594 0.20615582 -0.32118958 0.3544679 -0.16416942 0.115739614
0.23389867 0.06487883 0.33162913 0.15186307 0.08435988 0.06851966 -0.05512661 0.29117504
-0.27507645 0.10014619 -0.14166626 0.09132055 -0.030984297 0.03323957 -0.0031976993 -0.30657053
-0.28976026 -0.16296244 -0.38008723 0.07621128 -0.15982711 -0.17178196 0.35960534 0.044613265
-0.21908729 0.08685507 -0.07874538 0.33055407 -0.056621846 0.30857924 0.064023264 -0.043600604
0.27780685 -0.19423097 -0.39499858 -0.2470301 -0.1089553 0.31200093 -0.096779004 -0.06913797

actor.init_next_embed.0.bias f4 [32]
00000000: 02a4 2bb0 b37f af34 609e 8ab1 78a8 6b30
00000010: d7b1 03b1 69c0 adb3 0f06 1930 d014 3334
00000020: fb6b 2e31 3fdc 60b1 367d ef30 1eb9 0034
00000030: a4fd 9733 7b30 a834 e2d3 b6b0 0e9a 29af
00000040: 831a 22b0 b987 c7b2 16f0 bab0 1c25 9a31
00000050: d3e6 07b2 1ee3 0335 58fd 732f c900 1db4
00000060: e83f 73b4 5cf3 5334 c731 37b3 7350 9bb0
00000070: 4699 c6b0 3a93 8634 18ce 77b2 ad18 4d34
-6.2442507e-10 3.2689204e-07 -4.0343338e-09 8.573191e-10 -1.91641e-09 -8.0909395e-08 5.5669686e-10 1.6678246e-07
2.5381712e-09 -3.2721486e-09 1.7425126e-09 1.1988274e-07 7.0776224e-08 3.1327713e-07 -1.3302464e-09 -1.5425192e-10
-5.897293e-10 -2.3228369e-08 -1.3601518e-09 4.4862087e-09 -7.910518e-09 4.91318e-07 2.2190727e-10 -1.462205e-07
-2.2654388e-07 1.973944e-07 -4.265328e-08 -1.1300599e-09 -1.4449959e-09 2.5066566e-07 -1.44241525e-08 1.910109e-07

actor.init_next_embed.2.weight f4 [64, 32]
00000000: 6b52 193d 9b8f 223d 6218 f33c cd4c 20be
00000010: 6797 67ba e964 963d 771a 0abe 6f81 b2be
00000020: 217a 91bc 770a edbd cc59 133e 2b3d 4ebd
00000030: 76e0 bd3d bd96 adbd 674a 53bb 4626 e13e
00000040: 23b4 56be 0cdd 35bc bce9 433e e8d6 183e
00000050: 2776 d3bd c18c 793d 2648 17bd a553 5cbc
00000060: 839f 1bbe 5372 253e 16ee 9dbe d66e 57be
00000070: 005e 5bbe fd93 07be 232e cdbe 6e25 abbe
00000080: 8616 bd3d aec9 1d3e ca5f 983e 5d4c 82bd
00000090: e254 aebe 40ac b8bd 3ee6 0c3e baac 003e
000000a0: 40af ad3d 4258 793e f19b 98be 338d acbd
000000b0: e382 c13d 44b4 673e a5d5 f53d bd81 44bb
000000c0: db11 f1bd b979 073e 0387 653d 7d58 7c3d
000000d0: 41f0 13bd 7af4 6c3c e8d7 153e 3fe0 51bd
000000e0: ed62 5bbe 842e e8be 193b c4bd 1150 98be
000000f0: 33fb d83d d735 2a3e b73c 3abd a26c 0b3e
00000100: 4980 23be 5410 c4be 2425 50bd a067 803e
00000110: 701e d53d 52b7 d1bd e370 9fbc 5296 d9bd
00000120: 7c06 133d 02e0 e4bd 9949 93be 3a36 203e
00000130: 484d 92bc 04e9 a4bd b357 5a3e a31e ccbd
00000140: f708 113e d468 4f3e 1b31 08be e9a3 72bd
00000150: bc3e 43be 93a1 cf3d e4af 193e 5f81 0ebe
00000160: 11ef e5be 6ed0 f4bd 468d 953e cc35 873e
00000170: d1a0 40bd d16e 9fbd fbf8 08be 22af 91bd
00000180: b1ac f3bd f6b4 31bb 95be 86be 78a0 04be
00000190: b3f1 d33e 0624 303e d506 ec3d b609 323e
000001a0: 74b7 30be 93ae 4d3e a02b 533d 77b5 b9bc
000001b0: bf33 473d ce23 623e 61e7 6a3e effc 9e3e
000001c0: f8d3 50bd c3d8 363e d532 e5ba 2e31 fb3d
000001d0: 87d4 cc3c ba7a ecbd 536e 553e c20b e23d
000001e0: 0003 e4bc ba21 17be cdbf bd3d db0e c83e
000001f0: 7738 15be 0cbc 383e 7a2f 5a3e b506 c2be
00000200: 8173 193d 19f4 173e ccec 743d 60d7 463e
00000210: 245a 36bd 2d13 ab3d 4172 6a3d e305 9cbe
00000220: a9cf 283e 9c56 813e bb3f f83d 9cfc 6bbd
00000230: f4fa 2e3d 94a3 bb3d b3da 183e 4f28 3fbe
00000240: bdd0 f6bc bdd4 793e 6159 50be 3cb6 f13c
00000250: 32ed 5c3e 0173 56be d6c5 1e3e 87f4 9b3e
00000260: f237 c8bd f996 ef3d 2900 4bbd efc0 8dbe
00000270: ef67 a6be 234c 553d 9fbe 9f3e 4cf8 debd
00000280: 1ed7 2c3c 9501 ee3c c92f 78bc 2192 eb3c
00000290: 2d5c 713e 6881 a2be f942 67be 29a8 3cbe
000002a0: 0667 f03d f19a 12bb cd79 b93e 8d3e 9bbd
000002b0: f3e6 053e d1ae f73e c5ef 813e 4d62 0b3e
000002c0: fd07 8a3c 6628 6e3e 7479 4d3e dcd3 d4bd
000002d0: f082 aebe 2a48 7bbe 609d 41be 9a16 b0bb
000002e0: 2b7b 95bd d9e4 cd3d edce cc3c 1630 08be
000002f0: b7e6 9ebd 5ba7 e8b9 be2a 91bb 2f94 b03e
00000300: 531c 953c 97fc ba3e bb8d 14be 73a6 273e
00000310: 8ee4 99bd 3ba9 a5bd 0e9b f1bd 0447 b3bd
00000320: f8a3 bfbe 4749 28be ac72 46be 8750 62be
00000330: a97b bb3c 6a02 49be 4745 3ebe 22a8 3f3e
00000340: 8eb7 0dbe 39fe 183e ca54 bdbe f2a6 953e
00000350: 9dbc 4d3e cc5b afbb 9968 9fbd c275 8dbd
00000360: 9b41 273e c891 c1bb c895 3f3e ed63 44be
00000370: 7b05 64bd 0d18 f4bc 0301 ebbd 63a6 d9ba
00000380: 4f8d ca3c 5135 b0bd d810 67bd 5ce9 453e
00000390: 6d9d fc3d 5557 5f3e c7f2 8b3e e542 1fbd
000003a0: c957 ffbd 15c9 9abe 7dfa 993e 10fc c9bb
000003b0: 4204 ad3c 9653 7cbe aca7 333d 2bde 90be
000003c0: 5478 4abe 5e57 2d3e c44e c2be c713 763e
000003d0: e4cb 80be 8c8b 073e 47db b2bd 2c55 92bb
000003e0: baaa 64be 68fe 2e3e 58fe 10be ea56 e1bd
000003f0: 1302 12be 7440 6f3d 9317 033c a000 b73e
0.037432116 0.039687734 0.029674713 -0.15654297 -0.00088345114 0.07343466 -0.13486658 -0.34864375
-0.01775843 -0.11574262 0.14389724 -0.050351303 0.09271328 -0.08476017 -0.0032240392 0.43974513
-0.20967154 -0.011100065 0.19132131 0.1492573 -0.1032527 0.06092525 -0.03693404 -0.013447677
-0.15197568 0.16156892 -0.30845708 -0.21038374 -0.21422577 -0.13240047 -0.40074262 -0.33426994
0.09232812 0.15408966 0.2976058 -0.063622214 -0.34049135 -0.09017229 0.13759705 0.1256589
0.08480692 0.24350074 -0.29806474 -0.08425369 0.09448793 0.2262736 0.1200364 -0.0029984557
-0.11770984 0.13230027 0.05603696 0.061607827 -0.036117796 0.014462585 0.14633143 -0.05123925
-0.21424456 -0.4534799 -0.095815845 -0.29748586 0.105947874 0.16622101 -0.04546806 0.13615659
-0.15966906 -0.38293707 -0.05081667 0.2507906 0.10406196 -0.10240044 -0.019463008 -0.106243744
0.035894856 -0.111755386 -0.28767088 0.15645686 -0.017859116 -0.08052257 0.21322517 -0.09966781
0.14163576 0.20254833 -0.13299982 -0.05923835 -0.190669 0.1013824 0.15008503 -0.13916539
-0.44908956 -0.11953817 0.29209346 0.2640823 -0.047028366 -0.077848084 -0.13376229 -0.07113482
-0.11898173 -0.0027115918 -0.26317278 -0.12951839 0.4139534 0.17201242 0.115247406 0.17386517
-0.17257482 0.20086126 0.051555276 -0.022669537 0.048633333 0.22083971 0.22939827 0.31052348
-0.0509834 0.17856126 -0.0017486463 0.1226524 0.025003685 -0.11546846 0.20842867 0.11037399
-0.027833462 -0.1475896 0.09265099 0.39073834 -0.14572321 0.18040484 0.21307173 -0.37895742
0.03746367 0.1483921 0.05979614 0.19418097 -0.04451956 0.08353267 0.057237867 -0.3047324
0.16485466 0.2526139 0.121215306 -0.057613954 0.042719796 0.091620594 0.14927177 -0.1866772
-0.030128831 0.2439756 -0.20346595 0.029505841 0.21574858 -0.20942308 0.15505156 0.30459997
-0.09776296 0.116987176 -0.0495607 -0.2768626 -0.3250117 0.052074563 0.3120012 -0.108872026
0.010549335 0.029053489 -0.015148112 0.028756203 0.23570319 -0.31739354 -0.22584142 -0.18423523
0.117384 -0.0022370184 0.3622574 -0.0758029 0.13076381 0.48375562 0.25378242 0.13611718
0.016849512 0.23257598 0.20065862 -0.103919715 -0.34084272 -0.24539247 -0.1890769 -0.005373788
-0.07298883 0.10053415 0.025001014 -0.13299593 -0.07758849 -0.00044375178 -0.004430144 0.34488055
0.018201983 0.36520836 -0.14507191 0.16372089 -0.075142965 -0.08088919 -0.117971525 -0.087537795
-0.37429786 -0.16434203 -0.19379681 -0.22101031 0.022886114 -0.19629827 -0.18581115 0.18716481
-0.13839552 0.14940728 -0.3697875 0.29228932 0.20091482 -0.005351519 -0.07783622 -0.06907226
0.1633362 -0.005907271 0.18709481 -0.19178744 -0.05566929 -0.029796625 -0.11474802 -0.0016605373
0.024725584 -0.08603919 -0.056412548 0.19327301 0.12334714 0.21810658 0.27333662 -0.038882155
-0.124679156 -0.30231538 0.3007392 -0.0061640814 0.021120194 -0.2464126 0.043861076 -0.282945
-0.19772464 0.16927859 -0.37950718 0.24030982 -0.25155556 0.13236827 -0.0873323 -0.0044657197
-0.22330752 0.17089236 -0.14159524 -0.11002906 -0.14258604 0.058411077 0.008001226 0.35742664

actor.init_next_embed.2.bias f4 [64]
00000000: d706 1d33 50fa 5034 eb43 14b4 96f7 9db3
00000010: 3759 37b4 9e16 5b34 ba0f d333 bf71 bb34
00000020: 43e3 48b3 d1dd 9733 07a5 9bb4 2036 b434
00000030: 3a75 bbb4 7837 72b4 a916 e433 1c8f 9734
00000040: 3c00 3533 87a4 2b34 443b 38b4 3627 0eb4
00000050: 6a4d 1734 ef5c 86b4 e11c 1b33 d3f2 4a32
00000060: b3df 4334 036f e333 296a 45b4 31ac 4bb4
00000070: d154 0db4 c078 0634 ecde 5ab3 f9d9 2e34
00000080: 6109 15b4 fbf1 6c32 adad 6934 43af 1733
00000090: c482 50b3 ca95 80b4 3145 b8b4 d2d7 9831
000000a0: a940 f833 79db 4eb3 c0c2 acb4 8386 33b3
000000b0: bd6a a633 0c34 94b1 5c17 8633 6ee6 4934
000000c0: 9ac9 3c34 203a 7433 f2ad b1b3 0530 0334
000000d0: eb64 e230 ba9f 0234 04eb 81b3 47c1 44b3
000000e0: 677d 8db4 9fb7 5a33 2c19 3633 5e21 32b4
000000f0: 0611 c933 e4bf 8133 d643 35b3 337b 41b3
3.6560632e-08 1.9462573e-07 -1.3808283e-07 -7.355918e-08 -1.7075659e-07 2.0404192e-07 9.828314e-08 3.4914225e-07
-4.6772822e-08 7.0718336e-08 -2.8991073e-07 3.3566994e-07 -3.4916758e-07 -2.2558186e-07 1.0621199e-07 2.8230068e-07
4.214256e-08 1.5985471e-07 -1.7157896e-07 -1.3239045e-07 1.4091134e-07 -2.5027063e-07 3.6115015e-08 1.1813159e-08
1.8242172e-07 1.0590704e-07 -1.8385676e-07 -1.8968491e-07 -1.3162504e-07 1.2523651e-07 -5.0959827e-08 1.6284311e-07
-1.3880118e-07 1.3792028e-08 2.1762999e-07 3.5316827e-08 -4.8547705e-08 -2.3950844e-07 -3.4323014e-07 4.448318e-09
1.15601615e-07 -4.8162722e-08 -3.2179196e-07 -4.1799023e-08 7.749393e-08 -4.313284e-09 6.24411e-08 1.8803414e-07
1.7582207e-07 5.686354e-08 -8.273845e-08 1.2217795e-07 1.6472347e-09 1.2165302e-07 -6.04978e-08 -4.581059e-08
-2.635454e-07 5.0924083e-08 4.239807e-08 -1.6589681e-07 9.3628884e-08 6.041935e-08 -4.2204043e-08 -4.5048363e-08

actor.embedder.layers.0.0.module.W_query.weight f4 [64, 64]
00000000: 0002 dfbd e4f2 30bd ba68 90bd 9626 92bd
00000010: 084c 86bd 50c5 dfbc bc33 193d d096 363c
00000020: 5e23 bb3d f030 1abd ecce c1bd 303a adbc
00000030: 488a d43c 0c13 51bd 90f0 733d 3683 eabd
00000040: e825 ae3c 34b0 933d 78f4 883d 8a04 f73d
00000050: 4069 74bb 181a 8c3d 9c10 b0bd 2c2e bbbd
00000060: 5c24 d5bd 74ed d2bd 78f9 d53d 805b 4d3b
00000070: b877 e53d 0036 a13a fa47 d93d f02d 0cbc
00000080: 96b0 a6bd d065 e2bd 8065 ef3a f0c7 5abc
00000090: 003c bdb9 6486 a3bd c258 dfbd d894 fcbd
000000a0: 9a16 ebbd 002b b0ba 46d4 f9bd 1c84 3a3d
000000b0: ac3b 2b3d 9038 c3bd e49e 94bd a66e d73d
000000c0: 280c 30bd 5c82 bebd 38d4 b2bc 9e2b b1bd
000000d0: 809b 37bb f0a6 c33c 80d0 c5bd 8c92 f1bd
000000e0: 5208 edbd 7e47 953d 10cf b7bc bc3c f93d
000000f0: 003c dfba 601d 023c 56c5 dcbd 7e41 aa3d
00000100: 50de f2bd aac8 ad3d 74a6 5a3d 08b1 5e3d
00000110: 36e7 f63d 700e 263d 7ecf afbd 60a0 3e3d
00000120: 3055 87bd 147c 113d 98ae b2bc 0024 eebc
00000130: 8055 dc3a ea28 833d ba5c 953d f2ea f33d
00000140: 6c9b 9e3d b09c 933d ec67 e53d 88fe 4e3d
00000150: 505c 403c 34e2 903d 8040 aebd c6d1 eabd
00000160: 20b9 af3c ea62 a4bd c02c 3f3c 7071 d9bc
00000170: 50a3 efbc f09c fd3c 2cba 15bd 70f8 043d
00000180: 00d5 a1ba 680b aabd 0037 d73c 30f1 ab3c
00000190: 9098 e83d 2899 6e3d 9852 81bc e847 883c
000001a0: b2af b33d 00d2 f73b 0064 053d 5cf3 0e3d
000001b0: 101a 17bc 7209 ffbd 68b2 b73d f6b9 ea3d
000001c0: 88db 34bd 222e b7bd f084 0f3c d472 793d
000001d0: c455 26bd 4079 e13c e49d 52bd 4034 a73c
000001e0: e096 07bc 64c7 8a3d c410 8c3d 4028 5d3b
000001f0: 78f4 f9bd 6a24 bbbd 1457 56bd a229 a3bd
00000200: 687c ccbc 4026 31bc 004e cbbc e207 b23d
00000210: f221 f03d 8ee7 ff3d 3848 a33c d46b acbd
00000220: 5c44 0fbd f233 983d d88d 8dbd 62ee 91bd
00000230: e858 ecbd b0e6 713c 48d8 3c3d 007c 473b
00000240: f0bd adbc d021 5abd 7809 a53c 64c4 403d
00000250: 0af3 dcbd c490 2c3d 78ad 7f3d ae89 86bd
00000260: 44cd f83d 8052 3e3d 7041 51bd 1ec8 dc3d
00000270: 38e9 c63d 22b8 8ebd 080c a43d 641f 253d
00000280: 40d1 efbb 4c7b 1abd 9407 19bd 1a6f c43d
00000290: c0de fbbd f0f6 ff3c 8095 aebb dce2 65bd
000002a0: 0631 e4bd 58f0 eb3d e007 b43d 88cd a0bc
000002b0: 10ce e93d 1c0b dabd 8ca5 c63d 4cae a9bd
000002c0: e8ac abbc d06e 213c 78ab 823c 8888 59bd
000002d0: a8c4 d83d fe94 f83d 9c83 823d 0cd6 3fbd
000002e0: 3a3b bc3d 3400 7ebd 98cc a0bc c070 0f3b
000002f0: 1e58 fcbd f21d cfbd 884b 0e3d dc67 cfbd
00000300: 00a8 8139 a27f 9cbd f896 6b3d e0c1 803b
00000310: 2ab0 913d 5465 79bd 4a27 b23d f645 9b3d
00000320: 4aaa a23d a68f c7bd 80f0 b93d 78d9 7bbd
00000330: 00b7 ea3b 2c48 943d 5046 b6bd 06e4 823d
00000340: 305b c8bd 80d3 e0bd 8077 063c 2829 e2bc
00000350: 1463 363d 9e40 ea3d 4c4d bf3d 76a4 a53d
00000360: fc30 5bbd a83b 0cbd a83b bd3c 0010 efb8
00000370: a2bf e63d 289e d63c 80f7 a3bc a84f 7cbd
00000380: 0a96 9f3d 7e22 a7bd 202b 093d 1024 223c
00000390: a015 62bd 80b4 64bc 2ca5 163d 3864 81bc
000003a0: cc1d f4bd 1ccc 573d 78e7 ddbd b48a 383d
000003b0: 30c2 57bd ec93 443d b023 fa3c 5eec b5bd
000003c0: e888 afbc dc4e fb3d 4a8a e3bd 40ea 8abc
000003d0: 20bd 3f3d 9426 94bd a8db cd3d f6ee 983d
000003e0: d451 843d 9081 e53d 6804 0f3d 0837 8f3d
000003f0: 5a8c e63d 2a25 aebd baef b1bd e8fc b83d
-0.10889053 -0.04320039 -0.07051225 -0.07136266 -0.065574706 -0.027315766 0.037402853 0.011144355
0.09137605 -0.037644327 -0.09463295 -0.02114591 0.025944844 -0.051043555 0.05955559 -0.11450808
0.02125831 0.072113425 0.06687254 0.12061413 -0.003729418 0.068409145 -0.08596918 -0.09139666
-0.104073256 -0.10299197 0.10447973 0.0031335056 0.11204475 0.0012299418 0.106094316 -0.008555874
-0.0813915 -0.110545754 0.0018264502 -0.013353333 -0.00036093593 -0.07984617 -0.10905601 -0.12333077
-0.1147892 -0.0013440549 -0.12198691 0.045536146 0.041804954 -0.09532273 -0.072568685 0.105191514
-0.042980343 -0.09302208 -0.02182971 -0.086508974 -0.002801627 0.023883313 -0.09658909 -0.1179553
-0.115738526 0.07289027 -0.022437602 0.12169787 -0.0017031431 0.007941574 -0.10779826 0.08313273
-0.11858809 0.08485539 0.0533814 0.05436805 0.12055819 0.040541112 -0.08584498 0.046539664
-0.06608045 0.03551872 -0.021811768 -0.0290699 0.0016810149 0.06404288 0.07293077 0.11910047
0.07744488 0.0720762 0.11201462 0.05053571 0.011740759 0.07074395 -0.08508396 -0.11465792
0.02145058 -0.08026679 0.011668384 -0.026543349 -0.029252678 0.030958623 -0.0365545 0.03246349
-0.0012346804 -0.08302957 0.026271343 0.02098903 0.11357224 0.05825153 -0.015786454 0.01663585
0.087737456 0.0075628757 0.03256607 0.034900054 -0.009222522 -0.124529734 0.08969575 0.114612505
-0.044154674 -0.08944346 0.008759722 0.060900524 -0.040609136 0.027523637 -0.051420107 0.020410657
-0.0082757175 0.06776312 0.06839135 0.0033745915 -0.12204832 -0.09137805 -0.052329138 -0.07966925
-0.024961665 -0.010812342 -0.024817467 0.0869291 0.117252246 0.124953374 0.019931898 -0.08419004
-0.034977302 0.07431783 -0.0691182 -0.07125546 -0.11540395 0.014764473 0.0461047 0.00304389
-0.021208733 -0.053254902 0.020146117 0.047062293 -0.107885435 0.042130247 0.062421292 -0.06569229
0.12148526 0.046465397 -0.051087797 0.10780357 0.09712452 -0.06968714 0.08010107 0.04031314
-0.0073186457 -0.03771524 -0.037360743 0.095915034 -0.122983456 0.031245679 -0.0053278804 -0.056124553
-0.11142163 0.11520451 0.087905645 -0.019629255 0.114162564 -0.1064665 0.09699544 -0.082851976
-0.020956472 0.00985308 0.015950903 -0.053108722 0.10584384 0.12137793 0.06372759 -0.04683499
0.09190984 -0.062011912 -0.019628808 0.0021887273 -0.123214945 -0.101131335 0.03474 -0.101272315
0.00024729967 -0.076415315 0.057517022 0.0039293617 0.07113679 -0.06088765 0.086989 0.07581703
0.07942636 -0.09744196 0.09079075 -0.06148669 0.0071629286 0.07240328 -0.0890013 0.06391148
-0.09783018 -0.109778404 0.008207202 -0.027607515 0.044528082 0.11438106 0.09340915 0.08088009
-0.053513512 -0.03423658 0.023099735 -0.00011399388 0.1126702 0.026198462 -0.020015478 -0.061599404
0.077922896 -0.08160876 0.033488393 0.009896293 -0.055196404 -0.01395905 0.036778614 -0.015794858
-0.11919746 0.05268489 -0.10835165 0.045054153 -0.052675426 0.04799263 0.030534595 -0.08882974
-0.021427587 0.122709006 -0.11110361 -0.016957402 0.046811223 -0.07233921 0.10051662 0.07467453
0.0646092 0.11206353 0.03491631 0.06992918 0.11257239 -0.08503182 -0.08688302 0.09032613
