AI_project/code/logs/experiment/0417-acktr-2024.04.19-09-19-53/PCT-041-acktr-2024.04.19-09-19-53_2024.04.19-09-19-54.pt (torch, 238324 bytes, 24 tensors)

actor.init_internal_node_embed.0.module.weight f4 [32, 7]
000000 44 47 72 3e da ff 95 be 2b 51 41 be c4 f4 83 be
       0.23659998 -0.29296762 -0.1887862 -0.2577268
000010 fc f5 8c 3e d2 bd 37 3e 35 60 34 be d0 08 4d bf
       0.2753142 0.17943504 -0.17614825 -0.8009157
000020 95 8e fc 3d db 0a 43 3e 94 fb a6 bd 65 d2 ed bd
       0.12331883 0.1904711 -0.081534535 -0.11612395
000030 42 19 85 3e 82 0a 85 be 84 6b 32 bc 56 0c 40 3e
       0.25995833 -0.2598458 -0.010889892 0.18754706
000040 7b 49 82 be 33 ac 81 3e 5d e5 dd 3e de 51 b3 be
       -0.25446686 0.2532669 0.43339053 -0.35023397
000050 9a 70 ed 3d c8 3b cf 3e 60 fc 04 3f 3e 3f a3 be
       0.11593743 0.40475297 0.51947594 -0.31884187
000060 75 86 25 3d db 81 9d be 91 cd 6f 3e b0 40 97 be
       0.04041143 -0.30763134 0.23418261 -0.2954154
000070 ff 5b c4 bc c2 7c 8f 3e 1f a5 25 bd 57 b2 33 3f
       -0.023969648 0.2802487 -0.040440675 0.70194
000080 3d f0 ed 3d e9 7b 43 be bd 30 28 be dc ac af 3e
       0.116180874 -0.19090237 -0.16424842 0.3431157
000090 28 38 ea 3d 1c 36 86 3e 24 58 a3 be 6c 15 ed 3e
       0.11436492 0.26213157 -0.31903183 0.46305406
0000a0 66 9d 4c 3f ca 7e df bd e1 23 bb bd ab c0 c5 3e
       0.7992767 -0.10912855 -0.09137703 0.38623556
0000b0 2e 4e 48 bd 4b eb 0a be a3 b2 e5 3d ab f1 c7 bd
       -0.048902683 -0.1356632 0.11215713 -0.097628914
0000c0 c7 89 97 be 15 05 3b 3d 41 30 91 3e ec 7b 48 be
       -0.29597303 0.045659143 0.28357127 -0.19578522
0000d0 27 9a 56 3f 5c e9 13 3f c4 0e 69 3e 81 ba 70 bd
       0.8382897 0.57777953 0.22759539 -0.058771614
0000e0 4b 3f 29 3e 08 47 8a be eb c2 89 3e 7d 7f 72 bc
       0.1652805 -0.27007318 0.26906523 -0.014800903
0000f0 f6 7e 04 be d5 dc d7 bd 43 b1 8e be 2c ff a9 3d
       -0.12939057 -0.10540167 -0.27869615 0.08300623
000100 a7 15 f5 be 3c 34 97 be fd de 25 be 90 bc c7 bd
       -0.47868082 -0.2953204 -0.16198345 -0.09752762
000110 f6 31 68 bd 99 d7 15 bc 5b 31 28 3a 61 e4 71 3d
       -0.05668827 -0.009145641 0.0006416046 0.05905569
000120 fe f5 0a 3e c1 1a 01 bc eb a9 82 bd a0 a0 7e bd
       0.13570401 -0.007879914 -0.063800655 -0.062164903
000130 d3 aa 87 3b d1 17 99 be db 96 ba be 9e 0a 08 be
       0.004140237 -0.29900983 -0.3644322 -0.132853
000140 4f ef e5 bd 87 ad 24 be 6a 3c 21 bd b3 80 7c be
       -0.11227285 -0.1608182 -0.039364256 -0.2465847
000150 f9 58 fe bd 74 86 f3 bc 89 ff c3 3d b5 82 0c 3d
       -0.12419314 -0.029727198 0.09570224 0.03430434
000160 46 79 20 3e b3 8b 99 be c3 80 21 3e 9c 6b 89 be
       0.15671262 -0.29989395 0.15771775 -0.26839912
000170 22 28 a5 be 32 1f 94 3e 47 b7 3e 3c c5 df 14 be
       -0.3225718 0.2893005 0.011640376 -0.14538486
000180 0a d2 8f be 07 53 3b 3e 8e fa 7f 3d 88 69 3f 3e
       -0.28089935 0.18293391 0.062494807 0.186926
000190 d3 fd a3 be c6 90 71 3d 63 bd 02 be 50 48 8a 3e
       -0.3202959 0.058975957 -0.12767558 0.27008295
0001a0 08 a1 55 3e a8 0e c8 3d 04 d5 08 3d fe b4 2e 3c
       0.2086221 0.097684205 0.033406273 0.010663269
0001b0 55 b1 9e be 17 fa 15 be 7b 71 10 bf 50 6c a6 be
       -0.3099467 -0.14646183 -0.5642316 -0.3250451
0001c0 b7 8d 41 3e 24 89 eb bc b7 7e 59 3f 31 ee b5 3d
       0.18901716 -0.028751917 0.84958977 0.08883322
0001d0 f1 a1 2a 3e 55 c2 36 be d6 df f8 3e 0c 8e e5 bc
       0.16663338 -0.1784757 0.48608273 -0.028021835
0001e0 b0 c7 d0 bc e3 3d 07 3d ff af 98 3d 92 0e c1 be
       -0.025485843 0.033018004 0.074554436 -0.3770643
0001f0 6d bf 81 3e 9b a3 f1 be 09 65 6a bd b2 50 65 3e
       0.2534136 -0.47195134 -0.05722526 0.22394064
000200 82 01 10 be e5 2b c7 be ff a9 b6 3e 84 5f 90 bd
       -0.14063075 -0.38900676 0.35676572 -0.07049468
000210 2a 95 63 bd 7c 94 b9 3e 18 bf 17 be d5 a2 58 bd
       -0.055562176 0.36246097 -0.1481899 -0.052889664
000220 68 a4 94 3d ba b7 5f bd d0 34 b9 bd f1 42 52 3e
       0.072579205 -0.054618575 -0.09043276 0.20533349
000230 68 0b 80 3e e0 b6 13 bf cd d4 7c 3e 34 88 49 be
       0.25008702 -0.5770092 0.24690552 -0.19680864
000240 4c 71 75 be c1 c1 bc bc 88 a9 79 bd db e3 24 be
       -0.23969 -0.023041608 -0.060952693 -0.16102545
000250 16 87 24 bf b7 4e 9f be 51 0d 06 3f f1 35 04 3f
       -0.64268625 -0.31114742 0.5236407 0.5164481
000260 ef c3 5e be 35 03 04 be 14 0a 35 3e 66 6f 61 3d
       -0.2175443 -0.12891848 0.17679626 0.05503788
000270 2b 3f 3c be d6 03 bc bc ad 82 ab bd 4a f1 74 3d
       -0.18383472 -0.022951048 -0.08374534 0.059800424
000280 cb 96 b6 bd 95 63 e7 3d 1d be e7 3c 4e ac fc 3d
       -0.0891548 0.11298291 0.028288895 0.12337552
000290 5b 0c dd bd 92 9f 44 3c 26 f8 77 be f0 b4 bd be
       -0.10793372 0.012000935 -0.24215755 -0.37052107
0002a0 41 18 38 bd 82 2b 4f be bb f2 95 39 72 1b 79 3e
       -0.044945005 -0.2023144 0.00028600343 0.24326876
0002b0 28 79 40 3f 32 d3 98 3e ce db 9b be d0 64 9d be
       0.7518487 0.2984863 -0.30441135 -0.30740976
0002c0 2e ff 0c 3e 5a bb 32 3e 3e bd 85 be 0b 50 fd bc
       0.13769218 0.17454281 -0.26120943 -0.030921957
0002d0 81 4f 8b bd c4 c0 9e 3e e9 11 99 be 77 46 2c bd
       -0.068022735 0.31006444 -0.29896477 -0.042059388
0002e0 bf 35 27 be bc f6 01 be a5 cb fa 3c 59 77 2c be
       -0.16329096 -0.12691778 0.030614683 -0.16842403
0002f0 58 1d 29 be bc 35 23 bd 24 13 28 be 93 ca 10 bf
       -0.165151 -0.039846167 -0.16413552 -0.56559104
000300 17 06 6f 3d 43 8c 1a be ad 1f 13 bd 6f 93 87 3d
       0.058355417 -0.15092568 -0.03591888 0.066199176
000310 55 a2 63 bc 76 1f f7 3b b8 e8 72 3d 3f e2 9a be
       -0.013893683 0.0075415922 0.05930397 -0.30250737
000320 98 4f 2f bc 6b 49 ba be e6 7f 83 be 45 13 ba be
       -0.010700129 -0.36384138 -0.25683516 -0.36342826
000330 d1 a0 b2 be 7e e0 53 bf b9 16 0b bf 6c 73 03 3e
       -0.34888318 -0.8276442 -0.5433155 0.12836999
000340 f0 68 10 be 6f 20 4c 3e b3 92 65 bd df 15 67 3e
       -0.1410253 0.19934247 -0.056048106 0.22566937
000350 db b5 91 3e 2a a3 be be 69 4c a0 be 78 ea a5 3e
       0.28459057 -0.3723386 -0.31308296 0.32405448
000360 d9 c5 d1 be 03 3d f0 3e 0f 4a 37 3e 48 8d 50 3e
       -0.40971258 0.46921548 0.17899345 0.20366395
000370 d5 72 18 bd 89 12 7b bd 94 d4 12 bf cd cc 21 be
       -0.037218887 -0.061296973 -0.5735562 -0.15800782

actor.init_internal_node_embed.0.add_bias._bias f4 [32, 1]
000000 4c 1f 34 bb 41 9c 5d 3c 34 d7 77 3d 01 e1 58 3c
       -0.0027484475 0.013526023 0.060507968 0.013237239
000010 b8 bc e2 3d 30 0a e0 3d 5c 6e 4c bc 13 d3 41 3e
       0.110711515 0.10939443 -0.012477484 0.18928175
000020 e8 65 09 3d 1c ec c1 bd b8 65 ef bc 97 27 95 bd
       0.03354445 -0.094688624 -0.029223308 -0.07282942
000030 a1 d9 50 bc 1e 9a 3a bd a4 32 e4 bc 40 8b 86 bd
       -0.012747199 -0.045557134 -0.027856179 -0.065695286
000040 af d8 06 3d ba ba 06 bc db b5 3a bc d4 24 92 3c
       0.03292149 -0.00822323 -0.011395897 0.017839827
000050 63 93 8c bb 86 4a a6 3d ea d4 57 bc 9d dc ec 3c
       -0.004290031 0.08119683 -0.013173321 0.02891379
000060 b7 b8 c9 3d be b5 26 3c af b6 b3 3c d3 e8 ae 38
       0.09849685 0.010175167 0.021937696 8.3403334e-05
000070 00 ae 6e bb 81 e8 65 3c 54 97 e5 3c ce eb ed 3c
       -0.003641963 0.014032484 0.02802626 0.029043104

actor.init_internal_node_embed.2.module.weight f4 [64, 32]
000000 62 88 76 be 80 b3 7b bd 01 59 11 3f a2 df b2 3e
       -0.24075463 -0.06145048 0.56776434 0.34936243
000010 5c 8a 9c 3d 6d c5 e0 bd f3 c9 55 3d e9 a6 07 3f
       0.076435775 -0.10975156 0.052194547 0.5298906
000020 27 44 01 bd 69 59 06 bb 6f 8f 55 be 16 95 39 be
       -0.031559136 -0.002050007 -0.20855497 -0.18123278
000030 4a 7a d4 bd 4d 9a df 3d 58 17 20 3e de e5 76 be
       -0.10374887 0.109181024 0.15633905 -0.24111125
000040 25 f2 a5 be 5c 0a 42 3e 42 b6 da 3d 5e 88 6e bd
       -0.32411304 0.18949264 0.10679294 -0.05823552
000050 3b cd 22 be 61 44 34 3e 14 1f 01 be cb 7d 22 be
       -0.15898602 0.1760421 -0.12609512 -0.15868299
000060 69 0d 0a 3e 17 de e2 bd 84 b0 dd 3d 2a 10 de ba
       0.13481678 -0.110775165 0.10824683 -0.0016942073
000070 d1 ed 8c 3e b1 33 14 be ad 95 b6 3a ca c2 cb bc
       0.2752519 -0.14472844 0.0013930105 -0.024873156
000080 7b 65 89 bd 50 76 fd bd 25 3b 7e 3e 4c 3b 14 3f
       -0.06708809 -0.12376082 0.2482725 0.5790298
000090 de 07 b9 3d 5f ef 82 3e 5f 00 1b bd 5f 39 e1 3e
       0.09034704 0.2557325 -0.03784215 0.43989083
0000a0 db 92 4c 3e d9 22 01 3e a2 60 dd 3d c1 7d 27 3e
       0.19977896 0.1261095 0.10809447 0.16356565
0000b0 16 3e ac be 92 4b 16 3d 5a 84 97 be b8 81 33 3e
       -0.33641118 0.036693163 -0.29593164 0.17529953
0000c0 e4 dd 7b 3e 16 f4 b7 be 68 74 09 3d 9b 45 90 3e
       0.24596363 -0.3592841 0.03355828 0.28178105
0000d0 03 b3 3f be a2 97 bb 3e ea ce b2 3d fc 57 b9 3d
       -0.18720631 0.36639124 0.08730872 0.09049985
0000e0 97 9d ed 3e cc 15 3c bd de e1 e0 3d 09 b4 0e 3e
       0.46409294 -0.045919225 0.10980581 0.13935865
0000f0 96 3f a6 3d c6 29 f2 bd 1b 53 cb be c5 ec d0 3e
       0.08117597 -0.11824374 -0.39711842 0.4080564
000100 05 2c 33 3e ac d5 3b be 93 40 4a be e7 f4 38 3e
       0.17497261 -0.18343228 -0.19751196 0.18062173
000110 bc 79 07 bf 4a ed a3 3c b9 57 b1 bc 17 6c 87 bc
       -0.52920127 0.02001061 -0.021648275 -0.016531033
000120 d3 09 36 be ad 58 0c 3e 3b ef 1d be c9 99 29 be
       -0.17777185 0.13705702 -0.1542329 -0.1656257
000130 55 d3 5f be e3 99 5e be 6e 51 85 3e a3 24 36 be
       -0.2185796 -0.2173839 0.26038688 -0.17787413
000140 30 30 37 bb d5 58 98 bc 0a ab 29 3c 30 b1 f5 bd
       -0.0027952306 -0.018597046 0.01035572 -0.119966865
000150 63 f2 20 be e5 2a 47 bd 71 c2 8f be 3b 23 a3 bd
       -0.15717463 -0.04862489 -0.28078035 -0.07965704
000160 6b b1 08 bd 7f 2e 63 3e d8 a0 b8 3e d1 20 5d bc
       -0.033372324 0.22185706 0.36060214 -0.013496594
000170 e5 09 1d be a0 39 50 bd 27 9c 5d 3e 7a 0b c3 bc
       -0.15335806 -0.050836205 0.21641599 -0.023809183
000180 ab 2a 22 be 40 9d 74 be 8c 64 85 3e 95 85 8b 3e
       -0.15836589 -0.23888111 0.26053274 0.27250353
000190 16 4b 84 3e 34 5e c9 bd cd 06 cb bd 46 c9 90 3e
       0.25838536 -0.09832421 -0.099134065 0.2827856
0001a0 ce 52 74 bd ab bd 96 be 79 e1 81 3e be 57 b4 bd
       -0.05964928 -0.2944158 0.25367334 -0.08805798
0001b0 34 f4 40 be 72 f9 4d be c4 15 45 3e 41 a9 4d 3e
       -0.18843156 -0.20114687 0.19246584 0.20084096
0001c0 49 b3 f4 3e 4b 6c 24 3e 45 2c b7 3c 2b 62 f8 3b
       0.47793034 0.16056935 0.022359977 0.007580062
0001d0 16 50 bc bd 40 01 04 bf 67 b4 c0 3b 93 db 7c 3e
       -0.09194963 -0.5156441 0.0058808806 0.24693136
0001e0 fc e2 42 3e a9 76 0c 3e 25 66 52 3e bb 00 cb 3d
       0.190319 0.1371714 0.20546778 0.09912249
0001f0 f8 df da be c4 ce d5 3d c8 c1 e9 3e c8 39 c7 3e
       -0.42749 0.10439828 0.45655656 0.3891127
000200 a6 f5 8a 3e 5f 2e 42 bd f9 a7 fe bd 0d 5e ef 3e
       0.2714054 -0.047407504 -0.12434382 0.46751443
000210 a4 1c 83 3d e2 a0 85 3d bb d8 31 bd 74 b1 de 3e
       0.06401947 0.065248266 -0.04341958 0.4349476
000220 38 b7 0a 3e 93 ef 19 3e 5a ce 39 3e 5b 8e 7f bd
       0.13546455 0.15032797 0.18145123 -0.06239162
000230 e4 65 b2 be 8b 37 f3 bd fb 79 c6 bd 04 a3 c4 be
       -0.3484336 -0.11875828 -0.09691235 -0.3840562
000240 88 51 5a 3e 85 a8 9b be 9b 89 96 bd c7 fa 26 3e
       0.21320164 -0.30402008 -0.07350465 0.16306601
000250 e3 53 63 3d fa 9b d0 be 96 c5 5e be 94 e1 23 3e
       0.055499922 -0.40744 -0.2175506 0.1600402
000260 8e 8a ff be 68 ae 93 3d a2 fb 79 be 44 93 88 3d
       -0.49910396 0.07211 -0.24412397 0.06668714
000270 76 4c 99 be 4b 53 4d 3d e3 6e bd bd 34 42 12 be
       -0.29941148 0.050128262 -0.092496656 -0.14283067
000280 bc 07 41 be c1 e9 06 be 6c 7b ad bd 85 39 56 3d
       -0.18850607 -0.13175108 -0.084708065 0.05230095
000290 8e de 3d 3e a9 e4 2f 3d 35 5b 92 bd 58 6a 9b 3e
       0.18541929 0.042942677 -0.071463026 0.3035457
0002a0 f0 32 98 3e 89 35 49 be 97 21 22 be 9d 2c a4 bd
       0.29726362 -0.19649328 -0.15833126 -0.08016322
0002b0 de d9 31 be b6 f2 85 3d e3 53 b0 be 10 53 9a bc
       -0.17368266 0.06540434 -0.34439 -0.018838435
0002c0 20 7f 5c 3e 35 bb cc be 87 36 9b 3e 25 d4 51 bd
       0.2153287 -0.39986578 0.3031504 -0.051227707
0002d0 d7 58 cc 3d 60 14 0a bf ee 0f 85 3e ff d2 92 be
       0.09977882 -0.5393734 0.25988716 -0.28676602
0002e0 50 58 a3 bd f7 b2 24 3e 3b 87 37 bd 5e d6 55 bd
       -0.07975829 0.16083895 -0.0448067 -0.05220639
0002f0 e4 92 ec 3d f9 1d da 3d bc cb 70 3e ca b7 78 be
       0.11551455 0.10650248 0.23515218 -0.2428886
000300 f2 09 87 3d 42 bf fe bc 5a 17 cc 3d f5 62 17 be
       0.06593694 -0.031097058 0.099653915 -0.14783843
000310 1a ba df 3d 2c 5f 2c 3f d9 ee 0b 3e 85 c5 21 3e
       0.10924168 0.6733272 0.13665332 0.15798004
000320 03 f4 4d 3e 6e c8 58 3e 61 e9 99 be 63 0f 0d 3e
       0.20112614 0.21170208 -0.30060866 0.13775401
000330 24 9e 6c be 4a 51 8f be 0d 84 23 be d3 a8 eb bb
       -0.23107201 -0.27991706 -0.15968342 -0.0071917563
000340 a9 69 19 3e 79 36 c1 bd 8e fa 84 be 31 db de bd
       0.14981712 -0.09434218 -0.25972408 -0.10881651
000350 91 59 31 3e 04 2f 6c bd f3 36 ae be 54 f8 06 3e
       0.17319323 -0.057662025 -0.34026298 0.13180667
000360 7f 9f 5f 3e 56 e2 ab bd d5 fa 36 be a6 72 f2 bd
       0.21838187 -0.083927795 -0.17869122 -0.11838274
000370 fe ba 39 bd 99 34 90 3e c7 b1 22 3e 09 ef 1d 3e
       -0.045344345 0.2816513 0.15888129 0.15423216
000380 43 75 ba bc a5 b7 12 3e 0f 4c d5 be f3 ee 67 bc
       -0.022760993 0.14327867 -0.4165959 -0.014156091
000390 7c 05 d3 3d 37 29 da bd 6b 50 6e bd f4 01 d7 3d
       0.103037804 -0.10652392 -0.05818216 0.104984194
0003a0 96 f1 f6 3e c1 17 84 3d ca 18 d6 3d 44 ba 9a bd
       0.4823119 0.06449843 0.10453947 -0.075550586
0003b0 bf 8d ce 3d e1 36 98 be 7a 7b 9c bd a4 98 02 3e
       0.1008563 -0.2972937 -0.07640739 0.1275354
0003c0 6e 19 ca 3c c7 5f 56 bd 67 ef 10 3e 09 9d d4 3d
       0.024670329 -0.052337434 0.14153825 0.103815146
0003d0 17 3b 30 bd 5c a5 b6 be 5d f9 a8 bc 22 5f 41 3e
       -0.043025102 -0.35673034 -0.020626718 0.18883947
0003e0 fc 02 2f 3d f2 48 6f 3e 61 cf c8 bd bc f3 25 be
       0.042727455 0.2336767 -0.098051794 -0.16206259
0003f0 62 74 c5 3c 3e 54 b0 be ec c5 1e bd 76 dc c1 3e
       0.024103347 -0.34439272 -0.03876297 0.3786351

actor.init_internal_node_embed.2.add_bias._bias f4 [64, 1]
000000 8c 83 56 3d a5 d5 5f 3e b0 05 f3 bd 2c f6 dd bc
       0.052371547 0.21858843 -0.11866319 -0.027094923
000010 6b 85 63 3c 55 3b f2 bb 0f 15 a6 3d 51 18 af 3c
       0.01388679 -0.007392327 0.08109485 0.0213739
000020 1f 53 f5 bd e2 55 16 bd 18 66 6e 3d 4b 4c 8b 3e
       -0.11978745 -0.036702998 0.058202833 0.27206644
000030 b1 d9 a7 bd 98 e4 12 bd 66 e9 d3 3c b1 1c 92 3d
       -0.08195818 -0.035862535 0.025868129 0.07134379
000040 a0 ff 1d 3e bb d3 da 3b 70 cf ca bd 49 27 83 bc
       0.15429544 0.0066780723 -0.09902847 -0.016009944
000050 f9 1d 4f 3c 97 6d f8 bd 99 5d 08 3e 68 e5 bc 3d
       0.012641423 -0.121302776 0.13316955 0.09223443
000060 e7 6c fa ba 67 fc 23 3e 14 dd de 3d b7 ee 4f 3e
       -0.0019105942 0.16014253 0.10882011 0.20305906
000070 27 46 c5 3d 87 ff 8d bc 8f 31 b3 3d ad a5 67 bd
       0.09632521 -0.017333759 0.08749687 -0.056554485
000080 33 21 af bd 86 9b a4 3d aa d0 11 3e f2 9a 43 3d
       -0.08551254 0.08037476 0.14239755 0.04775519
000090 41 4d 6a 3e 84 b8 26 3e 55 90 dd 3c c9 d4 10 bd
       0.22881033 0.16281325 0.027046362 -0.035359178
0000a0 6e 38 e8 bb fa 0e 08 bd 53 05 27 3e 18 ae 35 be
       -0.007086805 -0.033217408 0.16310625 -0.17742193
0000b0 08 68 fb 3d ec f9 27 3e 22 b1 a3 bd 42 35 a7 3c
       0.12275702 0.16403931 -0.0799277 0.020411137
0000c0 61 6f 7c 3c 4a 77 de 3d 2a 6f 10 3e 25 96 35 3d
       0.015407414 0.10862596 0.14104906 0.044332642
0000d0 95 67 17 be 19 6a a3 bd 90 68 3d bd e2 84 d6 3d
       -0.14785607 -0.07979221 -0.046242297 0.10474564
0000e0 e1 d4 5c bd 75 44 2e 3d d4 4d 96 3c 3f c0 d2 bc
       -0.053913955 0.042545754 0.018347658 -0.025726436
0000f0 69 9c 31 3d aa 3e 03 be 9b c3 f6 3c d7 bf 3b bd
       0.043362055 -0.12816873 0.030122569 -0.04583725

actor.init_leaf_node_embed.0.module.weight f4 [32, 8]
000000 d4 aa fb b8 e5 1a cc 3d fc c1 24 be d3 8d 9b 3e
       -0.00012000432 0.09966067 -0.16089624 0.3038164
000010 b9 71 f7 bd 5d 26 c6 bc be 00 e3 3e 4f cf c3 3e
       -0.12082238 -0.024188215 0.44336504 0.382441
000020 3a ac 4d be e8 ee a6 3e 36 ac 33 be 86 cc fc 3e
       -0.2008523 0.32604146 -0.17546162 0.4937479
000030 3d 87 bc 3d cd 28 c2 be ee 5f d8 3e 54 fd 05 bf
       0.09205482 -0.37921754 0.4226069 -0.52339673
000040 71 b7 a8 3d 34 0d b9 3d 2b 6a e6 3d bd 50 b9 bd
       0.08238114 0.090357214 0.11250719 -0.09048603
000050 56 e6 a6 3e c5 19 3b be 2d de 20 be 84 59 f0 3c
       0.32597607 -0.18271549 -0.15709753 0.02933956
000060 91 70 b4 be 3d f0 b9 3c b6 1d a4 3e 12 f8 6a 3b
       -0.3524213 0.022697562 0.32053918 0.0035853428
000070 3e 35 1a 3f b9 32 81 3b 10 f0 d9 3d 42 e5 9b be
       0.6023749 0.003942814 0.106414914 -0.30448347
000080 5d 69 14 3f b7 ec 9e 3d ca 67 f3 3e 07 16 a3 be
       0.5797327 0.077599935 0.47540122 -0.31852743
000090 7a f3 0d be be cc c8 3c 36 e0 54 3e db dd ca 3d
       -0.1386241 0.024511691 0.20788655 0.09905597
0000a0 59 f7 a3 be 59 62 d4 3d 61 50 c7 3e 5c eb a7 be
       -0.3202465 0.10370321 0.38928512 -0.32796752
0000b0 af c4 57 be f6 57 47 be f1 d8 93 3e 67 bb f7 3d
       -0.21071123 -0.19467148 0.2887645 0.12096291
0000c0 e8 2c f3 3e 32 5e 84 3e 52 04 fa 3e 06 3e f7 3e
       0.47495198 0.25853115 0.4883142 0.48289508
0000d0 4b 11 b3 be c5 10 2e 3f 6a 72 1f be 7c 1c b9 bd
       -0.3497413 0.6799434 -0.15570989 -0.09038636
0000e0 b3 c6 a1 3e f6 a1 ee bd 46 a5 2c 3e 4a aa bc bd
       0.31596908 -0.11651985 0.16859922 -0.092121676
0000f0 2d fd 07 3f 0e 59 1b 3f fe 27 bf 3d bf 2e 99 bd
       0.5312069 0.6068276 0.093338 -0.07479619
000100 67 d3 25 bd 6c ae f0 3d d6 d3 6f be ad 7c 0e 3f
       -0.040484812 0.11752018 -0.23420653 0.5565899
000110 df be 3a 3e 23 24 0d 3e bc ac 42 be 56 1c b8 bd
       0.18236874 0.13783316 -0.19011205 -0.0898978
000120 54 55 79 bd 46 64 eb 3e 41 00 ac 3d 16 25 fa 3c
       -0.06087239 0.4597494 0.08398486 0.030535262
000130 9f 86 b0 be bf 14 96 3e 06 db f1 3d b8 01 43 3e
       -0.34477708 0.29312703 0.118093535 0.19043624
000140 18 40 49 be cb 1b 4a 3d 11 45 38 3d 4c 74 a4 be
       -0.19653356 0.04934291 0.04498774 -0.32119977
000150 7f 6a 9a bd d9 77 b3 3e 56 44 13 3e 34 5f 83 3e
       -0.07539844 0.35052374 0.14381537 0.25658572
000160 7f 21 cd be 60 fc a1 3d b5 78 1f be 45 89 bc 3e
       -0.40064618 0.07909465 -0.1557339 0.36823478
000170 a3 36 8f 3e ed 7d 32 3f 8c 17 66 3d 81 78 09 3e
       0.27971372 0.697234 0.0561748 0.13424875
000180 35 74 ae be 68 0b b9 be 26 4b cc be a9 5f e2 3c
       -0.34073034 -0.36141515 -0.39901084 0.027633505
000190 8f 64 85 3e da 42 bf 3e 9b e3 09 3e f9 55 04 be
       0.26053283 0.3735569 0.13465731 -0.12923421
0001a0 43 1a 41 3e 21 ca 4c bd c0 f4 8d 3e 30 d8 41 be
       0.18857674 -0.049997453 0.27725792 -0.18930125
0001b0 37 9f 92 bd f6 d9 d5 bd 1f 5c a7 be b9 48 b8 3d
       -0.07159274 -0.104419634 -0.3268747 0.08998246
0001c0 29 0b 85 be 93 1d 19 3f ef ad 81 3e 78 9e 0f 3e
       -0.25985077 0.5981075 0.25328013 0.14025295
0001d0 2b 6b b6 3d ae af 12 be 86 b2 ca 3d 83 31 68 bd
       0.089071594 -0.14324829 0.09897332 -0.056687843
0001e0 ce b7 7e be 33 7d 90 bd df 81 86 3d 7b a5 04 be
       -0.24874803 -0.0705513 0.0656774 -0.12953751
0001f0 e2 a5 d8 3e 97 93 20 be 82 e3 cf 3d f3 e8 66 3c
       0.4231406 -0.15681301 0.101508155 0.014093625
000200 b1 47 57 3e 6f 0e 9c 3e 84 00 95 3e f3 4c 05 be
       0.21023442 0.30479762 0.29101956 -0.13017635
000210 b0 1e 53 bd 00 ba 48 3d 70 1b fa bd d8 8c 0a 3f
       -0.051542938 0.04900551 -0.122122645 0.5412116
000220 9b 1b b1 3e 45 a9 97 3e 23 f5 de be 9e 19 96 be
       0.34591374 0.2962133 -0.435464 -0.2931642
000230 1c 90 12 bd 66 75 8f 3d 49 06 f7 3d cb 30 b7 be
       -0.035781965 0.07004814 0.12061746 -0.35779414
000240 fe 97 f7 3e bf 4b bf bd a8 4e c0 3d cd 25 ed 3e
       0.48358148 -0.09340619 0.093900025 0.46317902
000250 0d f3 14 bd d0 16 99 3e de ca 90 3e e5 9f 29 be
       -0.036364604 0.29900217 0.28279775 -0.16564901
000260 cb 99 95 3d 44 f9 87 be 2c d8 d3 be 72 b0 70 3e
       0.07304724 -0.26557362 -0.41375864 0.23504809
000270 98 22 2d 3f 2a 31 b0 bd 44 b6 e8 3e aa 4e 11 3f
       0.6763091 -0.08603127 0.45451558 0.56760657
000280 cb f2 9a 3e fb a5 8e be 63 1d 22 be 05 ea 23 3d
       0.3026336 -0.27861008 -0.15831523 0.0400181
000290 fe f5 5e 3d 6c 8e 7e be 23 f0 9c 3c 64 74 72 3e
       0.054433815 -0.24859017 0.019157475 0.23677212
0002a0 9f 75 a8 3d 0d 5a 3b 3e 20 55 67 bd 52 56 4b bd
       0.082255594 0.1829607 -0.056477666 -0.04964287
0002b0 e2 81 b4 3e f7 60 e5 bd 39 ae f7 bd fe bc fa 3d
       0.35255343 -0.11200135 -0.12093777 0.12243079
0002c0 e6 01 bb 3e 71 ba 25 3f 7c 0a c6 be c2 44 e4 bc
       0.36524886 0.6473761 -0.38679874 -0.027864818
0002d0 6f b7 55 be 9f 44 68 be 1d 80 be bd 03 fb 49 3e
       -0.20870756 -0.22682427 -0.093017794 0.1972466
0002e0 f4 5c 87 3e 2e 79 2a 3f ba d5 ed bd b8 59 67 be
       0.26438105 0.66591156 -0.11613031 -0.22592819
0002f0 41 c6 f0 3d 6e 81 04 3f 74 ae 7b 3e 60 0e 76 bd
       0.11756564 0.51759994 0.24578267 -0.060072303
000300 f1 63 ed 3d 19 48 1f 3a b1 42 4c 3e a7 df 22 3f
       0.11591328 0.0006076112 0.19947316 0.63622516
000310 16 18 0c 3f a6 4e ad bd 91 2e 10 bf 1b 2e 33 3d
       0.5472425 -0.084622666 -0.56321055 0.04374514
000320 6f 20 b6 3e d8 cd 8e 3e 63 ae 28 3f 47 29 94 be
       0.3557162 0.2789142 0.65891093 -0.28937742
000330 23 a2 a8 3e 46 44 2a 3e c5 7d 5d 3e c9 c4 d0 be
       0.329362 0.16627607 0.21630009 -0.40775135
000340 74 5c 9c be d2 aa ec be 1f c1 9f 3e ba 50 32 3f
       -0.30539286 -0.46224076 0.31202027 0.6965443
000350 94 4e de 3e ac 85 d6 3e 06 55 b2 bd 44 a7 70 bd
       0.43419325 0.4189886 -0.08707623 -0.058753267
000360 5a 9f 1e be 96 14 e0 3d a1 11 a1 3e 67 5c 04 be
       -0.15490475 0.109414265 0.31458762 -0.12925874
000370 71 bf de 3d de b2 d4 be 2c 78 33 be f7 ff f6 bd
       0.10876358 -0.41542715 -0.1752631 -0.1206054
000380 09 a9 58 bc e4 23 3c 3e fe 4b bf be d1 7d 5b be
       -0.013223895 0.18373066 -0.37362665 -0.21434714
000390 f5 fa a8 3d 24 bf 21 3e 40 76 e3 be fa bf 98 be
       0.08250991 0.1579557 -0.44426155 -0.29833966
0003a0 d2 40 9f be 03 24 b0 3e be 07 73 3d d1 99 82 3e
       -0.3110414 0.34402475 0.059333555 0.25507978
0003b0 02 53 8b 3e 26 f7 3e 3e b7 9c 24 be c3 0a a9 3e
       0.27211767 0.18648967 -0.16075407 0.33016023
0003c0 f5 47 a6 bd b9 e5 4d 3d fa eb 21 3f 4f ac 55 3d
       -0.081191935 0.05026791 0.63250697 0.05216628
0003d0 7d 53 79 3e 3d 13 b9 bd c7 00 34 be 13 fd f0 3d
       0.24348255 -0.090368725 -0.17578422 0.1176702
0003e0 2f 45 08 be 12 9a d1 3d 4a 24 b5 be 20 f9 0f bf
       -0.13307641 0.10234465 -0.3537925 -0.5623951
0003f0 c1 42 92 be 23 2a 9c 3e d1 a6 c8 be c4 10 c5 3d
       -0.28566554 0.30500898 -0.3918977 0.096223384

actor.init_leaf_node_embed.0.add_bias._bias f4 [32, 1]
000000 49 4f 88 bd a5 4f d5 3c bc 79 3d bc 68 1b 71 3d
       -0.066557474 0.026038954 -0.011564668 0.058864027
000010 15 0c 23 bc e1 2d a8 3c 9a 5a 52 3e 21 b0 3b 3e
       -0.009951611 0.02052969 0.20542374 0.18328907
000020 ea b1 0f 3e 66 e6 34 3d fd 4b 78 3c 46 8f 4b 3e
       0.14032713 0.044165038 0.015154836 0.19878873
000030 c1 a8 92 3b 40 71 c5 bc 40 31 42 3d 27 68 a3 bb
       0.0044756834 -0.024101853 0.04741025 -0.004986781
000040 30 c7 0c bc e3 22 28 bd 6c 00 33 3e dc 2c 3c 3d
       -0.008592412 -0.041048896 0.1748063 0.04594122
000050 2e a3 98 bb 01 d0 e9 3c 00 4f 4b bc bd 44 e8 bb
       -0.0046581244 0.028541567 -0.012408972 -0.0070882724
000060 1e 1b 84 3d 67 31 17 3e fe 7a 04 3e dd 74 d4 bd
       0.06450485 0.14764939 0.12937543 -0.103738524
000070 4d 03 ae 3b ba 05 43 3d c0 57 0a 3d 46 a8 17 bc
       0.005310452 0.047612883 0.03377509 -0.009256428

actor.init_leaf_node_embed.2.module.weight f4 [64, 32]
000000 d1 2a 71 be df 7b 9d 3c d2 68 29 be a0 21 42 be
       -0.2355149 0.019224105 -0.16543892 -0.1895814
000010 7a 3f 31 be 81 25 66 bd f1 d9 e4 3d 55 0a d0 bd
       -0.1730937 -0.05618811 0.111743815 -0.10158221
000020 ae 09 0d be d1 88 c7 3e e0 ad 2f be 57 60 60 be
       -0.13773224 0.3897157 -0.17156172 -0.2191175
000030 b1 0d d4 be 73 6c de 3c 9d e6 8a bb 31 25 95 3c
       -0.41416696 0.027151322 -0.004238917 0.01820621
000040 f7 4b 43 bd b8 5b aa be f5 6e 04 3e 48 8f 73 be
       -0.047679868 -0.332731 0.12932952 -0.23785126
000050 62 b5 8a be 80 b5 df 3c 96 b6 99 3d 2f 95 ff 3b
       -0.2709151 0.027308226 0.07505529 0.0077997665
000060 92 c8 08 3f 2b 81 b1 3e 37 9e d5 3e 6a 09 8a 3c
       0.53431046 0.3466886 0.4172227 0.016850192
000070 41 8d 05 bf 0f 6f 01 3e ae e9 03 be bd 24 60 be
       -0.5216866 0.12640022 -0.1288211 -0.21889015
000080 2d 3d 26 be 08 01 3a 3d 3c 7e 95 be b4 9c df 3e
       -0.16234274 0.04541114 -0.29197872 0.43674242
000090 95 df ab be 2b 2f 1a 3e 0a 74 36 be 7e e4 3a bb
       -0.33569017 0.15057056 -0.17817703 -0.002851754
0000a0 aa d8 04 be ea ab d9 3d 9c 8c 19 3e 03 af 4e 3d
       -0.12973276 0.10628493 0.14995044 0.050459873
0000b0 dc d3 b8 3d 74 43 82 be 1d 19 94 be c4 52 15 be
       0.09024784 -0.25442088 -0.2892541 -0.14582354
0000c0 17 88 ae 3b 6f d2 9d 3d 93 b1 55 bd ab 72 82 bd
       0.005326282 0.07706153 -0.0521713 -0.063695274
0000d0 dc 0d cc bd ca 1d 8a be 54 da 65 3d 6a 38 fd 3c
       -0.09963581 -0.26975852 0.056116417 0.03091069
0000e0 d2 d6 33 3d b2 73 c4 3c 2c 0f 84 3e e8 f3 76 3e
       0.04390604 0.02398095 0.25792825 0.2411648
0000f0 bb c6 95 3b a4 f7 60 be 91 17 b6 3d d7 a1 1b 3d
       0.0045708097 -0.21969467 0.08891214 0.03799614
000100 9d b2 01 be 59 b9 02 be 8f 83 9a be af 9c ec 3c
       -0.12665792 -0.12766017 -0.30178496 0.028883306
000110 67 c4 04 be 79 8d e4 bd 5c 74 93 be 40 7d 36 be
       -0.12965547 -0.11159796 -0.28799713 -0.17821217
000120 f9 29 48 bf d1 9a 8f 3e d4 e8 b0 3d a2 4b 65 be
       -0.78189045 0.28047803 0.086381584 -0.22392133
000130 fd 84 8d 3e 91 4c 7e bd 3e 8f ad be 4f 9a 10 3e
       0.27640525 -0.06208474 -0.33898348 0.14121364
000140 0d 58 e2 3c ab f6 00 be 49 c8 b9 be f0 21 20 bd
       0.027629877 -0.12594096 -0.36285618 -0.039094865
000150 fa e6 5c 3e dd 71 23 3c 6a 3c 0b 3d eb 4a 78 bd
       0.21572486 0.009975878 0.033993162 -0.060618322
000160 30 d3 76 be 0d 25 eb bc 7e a0 d3 bd 2e d6 0d 3c
       -0.24103999 -0.02870419 -0.10333346 0.008657021
000170 2a e4 8a be 1e ed 79 bc c4 4b 04 be e5 bd 18 bd
       -0.271272 -0.015254287 -0.12919527 -0.037290473
000180 ec 4f 56 ba a6 4c 00 3e de 22 65 be e6 50 98 be
       -0.00081753614 0.12529239 -0.22376582 -0.2974922
000190 72 0c 08 bd 58 ff 06 3e 94 36 1d 3e 7f f4 39 be
       -0.033214994 0.13183343 0.15352851 -0.18159674
0001a0 5a 54 d8 bd 13 ab 4b be 6c be 5e bd 92 e9 c3 bd
       -0.10562964 -0.19889478 -0.05438082 -0.095660344
0001b0 ac f2 39 be fa b0 89 be a0 1e 85 3e 32 84 d4 be
       -0.18158978 -0.26892835 0.25999928 -0.41507107
0001c0 0c 2c 6d 3e 3d 2d 58 bd f2 a4 3b bd b6 de 26 bd
       0.23161334 -0.052777518 -0.0458116 -0.040739737
0001d0 9b 96 20 3c 87 c5 87 3e e4 f3 da bd 91 d0 90 be
       0.009801532 0.2651789 -0.1069105 -0.28284124
0001e0 8e 08 73 be ea 42 42 3e 6c 36 0f 3d 11 7d ac 3e
       -0.23733732 0.18970838 0.03496401 0.33689168
0001f0 8d bb 67 be 7d 85 a1 bc d6 ef f7 bd 27 09 bd bd
       -0.22630139 -0.019716972 -0.12106292 -0.09230261
000200 40 d2 43 bc a8 20 50 be a2 a7 3d be 22 a5 1e be
       -0.011951983 -0.20324957 -0.18520978 -0.1549268
000210 81 35 63 3e 99 36 c2 3d 60 70 03 be ea 1f c6 3b
       0.22188379 0.0948307 -0.12835836 0.006046285
000220 8c db 88 3d 70 bd 8f bd 98 5c 7f 3d 3f 08 b9 bd
       0.066825 -0.07018554 0.062344164 -0.09034776
000230 fd c4 84 3e bc 7b 27 3e 56 27 03 be ac 16 e7 bd
       0.2593154 0.16355795 -0.12807974 -0.11283621
000240 80 ce 02 3d fc ba da 3e 66 84 30 bc 68 53 06 3d
       0.031935215 0.42720783 -0.010773754 0.032794386
000250 e3 91 ac 3e b5 92 f8 bc e8 56 5b bc e9 bc eb 3d
       0.33705053 -0.030343393 -0.013387419 0.11510641
000260 d9 81 f3 3d fb 10 ee 3d 7d d8 ae be fa 6b 5e 3d
       0.11890001 0.116243325 -0.34149542 0.054302193
000270 d4 7e 97 3e 37 1b 52 3a 50 46 fa be 7a c0 38 3e
       0.2958895 0.00080149196 -0.4888177 0.18042174
000280 2b 82 d0 3d 95 bf 07 3f 75 54 a1 bd 7d bc 24 bd
       0.101810776 0.53026706 -0.07877437 -0.04021882
000290 67 5c fc be 43 d0 8e be b5 88 2f 3e b3 53 36 be
       -0.49289247 -0.27893266 0.17141993 -0.17805366
0002a0 9d b2 48 be 7f 5d 68 bd 9b e9 f3 3c 46 07 a4 be
       -0.19599386 -0.05672979 0.029774478 -0.320368
0002b0 10 e5 8f be d7 f2 b5 be 29 46 e9 be e8 1a c8 bc
       -0.28104448 -0.35536835 -0.4556134 -0.024426892
0002c0 01 63 03 be 4e ae 13 be da 93 0e be 27 64 66 bd
       -0.12830736 -0.1442196 -0.13923588 -0.056247856
0002d0 e4 37 db 3d 25 14 03 3e 6a 19 c1 3d bf b3 32 be
       0.1070402 0.12800653 0.094286755 -0.1745138
0002e0 8b 10 02 3e 83 ba 9c bd 47 1b c2 3c ad a1 28 be
       0.12701623 -0.07652762 0.023694647 -0.16467924
0002f0 b3 53 3f bd 74 b9 a6 be a5 d3 91 3e 86 b7 bc bd
       -0.04671068 -0.32563365 0.28481784 -0.09214692
000300 01 13 80 3d a4 79 8b 3e d6 6c 1b be 24 60 83 3e
       0.06253625 0.27241242 -0.15178236 0.25659287
000310 cd ee 1a be 4f 53 fd bd 7b bb f8 bd 09 d4 58 ba
       -0.15130158 -0.123694055 -0.12145134 -0.0008271342
000320 67 3c b6 3e bc 6c 2b 3e eb 66 4d be 51 e3 64 3d
       0.35592958 0.16740698 -0.20058791 0.05588085
000330 f5 3b a4 bd 94 b4 e0 3e 77 bc 80 be d5 af 1f bd
       -0.080192484 0.4388777 -0.25143787 -0.038986046
000340 a6 dc 9a be a5 b8 17 3e 7f 8a 80 3d 54 7c 0d be
       -0.30246466 0.1481653 0.06276416 -0.13816959
000350 16 d3 83 be 73 0a 53 3e 86 07 8d be d5 05 b7 be
       -0.25746983 0.20609455 -0.27544802 -0.35746637
000360 bc 02 3a 3d 75 b4 e3 3d 97 c8 45 be a0 36 6e be
       0.045412764 0.11118404 -0.193148 -0.23263025
000370 76 dd e9 be 2f dd 90 bd 48 2c a4 3e d4 77 3c be
       -0.45676774 -0.070734374 0.32065034 -0.18405086
000380 93 b1 7b 3d 7b 56 f4 bd 45 da 03 be ff 2a 88 3d
       0.061448645 -0.11930557 -0.12876232 0.06648826
000390 f0 2e 3d 3e 71 97 50 3e 1e 4f fa 3d 03 3b 1d 3c
       0.18474936 0.2037027 0.12222122 0.009596589
0003a0 7f 26 b8 3d fe ef f7 3d 9d c7 28 bd cf 4b 0a bf
       0.089917175 0.12106322 -0.04120599 -0.54021925
0003b0 0a 81 a6 be 1f 2d 5d 3e e7 2f 98 be 62 6c 3e 3e
       -0.32520324 0.21599244 -0.29724047 0.18596032
0003c0 26 ca a0 3d 6e ca 02 be 30 08 dd 3d 49 9d b2 bd
       0.07851057 -0.12772533 0.10792577 -0.08721406
0003d0 44 df 85 3e 21 c9 8c bd 56 4e c1 3d 8b b9 b3 bc
       0.261469 -0.068743 0.094387695 -0.02193906
0003e0 35 bc 38 3d 08 ab e2 3b 40 9d 63 3e e7 23 5e 3d
       0.045101363 0.006917361 0.22227955 0.054233458
0003f0 15 65 3e bb 62 f7 af bc d5 9a da 3d 5e 16 3c be
       -0.0029051949 -0.021480266 0.10674063 -0.18367907

actor.init_leaf_node_embed.2.add_bias._bias f4 [64, 1]
000000 6c 0a dc 3d 9e 9a 25 bd 90 02 02 be 71 2c df bd
       0.10744175 -0.040430658 -0.1269629 -0.108971484
000010 8f c9 5e be db 97 68 bd ec af af bd 2e 25 dd 3c
       -0.21756576 -0.056785446 -0.08578476 0.026995268
000020 7b 32 68 be ad d9 54 3e 40 2c 5a bc 34 a5 95 be
       -0.22675507 0.20786162 -0.013316214 -0.29227602
000030 97 e4 09 be a0 41 43 3e 30 13 b3 bc dd 48 3f 3d
       -0.13466106 0.19068003 -0.021859735 0.046700347
000040 02 4f 38 3c a9 73 7f be a8 16 b5 bd df eb 84 3c
       0.011249306 -0.24946465 -0.08842212 0.016225753
000050 a4 96 12 3e c2 2d a4 bc 42 da a5 3d 0d dd 38 be
       0.14315277 -0.02004135 0.0809827 -0.18053074
000060 e8 63 ec bc 5e 66 c2 3d 6b 1d 25 bb 96 ea a8 bc
       -0.028856233 0.09492181 -0.0025194536 -0.020619672
000070 fd f7 88 be d2 42 87 bc 5a 35 cd bc 5c 85 ae bd
       -0.267517 -0.016511355 -0.025049854 -0.0852153
000080 cf 3a 1f 3d 53 7e 55 3d dc af af 3c 04 2c e0 bc
       0.038874444 0.052122425 0.021446161 -0.027364738
000090 ce 16 3d 3e e4 89 ae bd 9e c1 3c be 0f 0b 58 bc
       0.1846573 -0.08522394 -0.18433234 -0.01318623
0000a0 57 8a 09 3d ae 78 52 bd 74 de b1 bd 7c cd 4e 3e
       0.033579197 -0.05138462 -0.08685008 0.20195574
0000b0 8a d5 e1 3b 59 42 83 bd e9 e9 20 be bd 78 29 bd
       0.006891911 -0.06409139 -0.1571423 -0.04137491
0000c0 4b 54 a7 3d 78 51 4e 3d d7 1a 88 3e 7d 08 f7 3d
       0.081703745 0.050370663 0.26582977 0.12062166
0000d0 f7 ef 72 bd a8 fa 85 bd 46 b9 64 3e f6 55 2e be
       -0.05931088 -0.065419495 0.22336301 -0.17024979
0000e0 b1 20 84 3e df 6b e5 3d 35 c0 60 bc 6b 72 68 3d
       0.25806192 0.112022154 -0.013717701 0.056749742
0000f0 26 9b af bc bb f8 9c be 5b 5d a4 3e 58 9c 05 bd
       -0.021436285 -0.30658516 0.32102475 -0.032619804

actor.init_next_embed.0.module.weight f4 [32, 6]
000000 0b 22 8a 3e 34 e7 03 be e9 9c fd 3e bf 61 4c be
       0.26979098 -0.12881166 0.49533775 -0.19959162
000010 34 5b a5 bd 3e bb 6e be 29 c2 b7 3e b5 d3 e1 be
       -0.08074036 -0.23313615 0.3589032 -0.44106832
000020 80 6d 5d be 68 1b 35 3c f8 44 98 bd aa eb e8 3d
       -0.21623802 0.011053897 -0.0743503 0.11373074
000030 39 2f 5b be 9a b3 9b be 72 45 61 3b bd 71 97 3d
       -0.21404733 -0.30410463 0.0034373668 0.07394741
000040 8f 66 03 3a 7e 76 96 be c0 42 4a be c0 d4 3d 3d
       0.0005012536 -0.29387277 -0.19752026 0.046345472
000050 46 89 64 3e 91 46 a7 be 21 aa a1 be 12 48 cc bd
       0.2231799 -0.32671025 -0.3157511 -0.09974684
000060 c0 c4 8a bd e4 6e 92 3e 3e 6a 2b bd e2 8c a5 bd
       -0.06775808 0.28600228 -0.041849367 -0.08083512
000070 f1 ba 72 be 5a 2f 9f bd c2 66 0a c0 1c 76 09 3f
       -0.23704125 -0.077727035 -2.1625218 0.53695846
000080 6c ac c2 be 3c 65 1a be e2 c1 c5 3c d7 9b 7d 3e
       -0.38022172 -0.1507768 0.024140302 0.2476648
000090 3c ad d9 be a5 a3 28 3e c3 54 f5 3e 6e ca 03 be
       -0.4251498 0.16468675 0.4791623 -0.1287019
0000a0 8d e0 f0 3d 0b 9e 25 be 3c a5 1a 3f e1 ea 8c 3d
       0.1176158 -0.1617357 0.6040838 0.06880737
0000b0 6c 3c 13 bd 34 71 8d 3e 64 47 80 3e e8 7f 9d 3e
       -0.035946295 0.2762543 0.25054467 0.30761647
0000c0 2d 8f 01 3e 5f 59 d7 3e 16 71 bf 3e d0 5c 34 3e
       0.12652273 0.42060372 0.37390965 0.1761353
0000d0 3a 69 a1 be 3d 8f 13 be 80 b3 a1 3e be c8 c6 bc
       -0.31525594 -0.1441011 0.3158226 -0.024265643
0000e0 cf de 8b 3e d9 ba a4 bd 60 d6 d1 bc 3e 97 9a be
       0.27318427 -0.08043451 -0.025614917 -0.30193514
0000f0 08 eb 45 be 02 00 83 3e 5a 7b 5d be bb df 5b be
       -0.19327939 0.25585943 -0.21629086 -0.21472065
000100 ff 05 33 bf d9 98 e7 bd f3 98 bd bd e2 ad 90 bd
       -0.69931024 -0.1130845 -0.092576884 -0.070644155
000110 53 e7 19 3e 7e 5f 8f be 2d 40 6c be 01 ae 3c 3e
       0.1502965 -0.28002542 -0.23071356 0.18425752
000120 d1 65 2e be 23 fc 52 3e 17 4d 15 bd 77 3e c0 be
       -0.17031027 0.20603995 -0.03645047 -0.37547657
000130 fa 0d b9 3e 5b f3 7b 3b 0e 5d d6 3f 15 11 64 3c
       0.36143476 0.0038444612 1.6747148 0.013920088
000140 1c c9 69 3d 5b e6 02 be aa e4 21 3f 81 f2 53 3f
       0.05707656 -0.12783186 0.6323954 0.82791907
000150 9e 8e 05 3f c2 5f 15 3d 50 01 4b 3e 40 d1 95 3d
       0.5217074 0.036468275 0.1982472 0.07315302
000160 f0 26 10 bd d5 44 04 be 4e 52 45 be 43 37 14 bf
       -0.035193384 -0.12916882 -0.19269678 -0.5789682
000170 58 cb e5 3d 41 6b bf be da cc 2a 3c af f0 0c be
       0.11220425 -0.37386516 0.010424817 -0.13763689
000180 e9 33 51 3e 11 ae 8e 3e 5c a6 04 bf ed 99 e1 be
       0.20429958 0.27867177 -0.51816344 -0.4406275
000190 e4 eb 76 3c 80 7b b8 be 88 d0 8b 3d 3b 7d 64 3b
       0.015070889 -0.36031723 0.068268836 0.0034864682
0001a0 2b 92 36 3d fd e5 73 3e 2c 7c 3b bd 2e f3 3e be
       0.04457299 0.23818202 -0.045772716 -0.18647453
0001b0 17 09 83 3e f4 35 95 be 9b 12 90 be 5c ca b6 3e
       0.25592873 -0.29142725 -0.28139195 0.35701263
0001c0 33 22 ce be 8c 12 af be 5f 20 38 3f 83 f0 95 bc
       -0.40260467 -0.34193838 0.71924394 -0.018303161
0001d0 f2 ce bf bd 18 d1 d3 be 74 9d 1a 3f 8d cc b9 be
       -0.093656436 -0.41370463 0.60396504 -0.36288872
0001e0 f5 22 9b bc 5d 46 85 3e db 44 57 bc 99 d1 a3 be
       -0.018937567 0.26030245 -0.013138975 -0.31995848
0001f0 bb 8b de be d0 0d 84 3e ac f1 ce bc 1d b0 93 3e
       -0.4346598 0.25791788 -0.025261723 0.288453
000200 85 8b 46 3d 89 22 f5 3e f7 1d b7 3d c2 94 36 be
       0.0484729 0.4787791 0.08941262 -0.17830184
000210 73 2b 5b 3e 7e 8d 93 3e 3d 43 98 3e 1e 83 0b 3d
       0.21403293 0.28818887 0.297388 0.03406059
000220 7b 19 d4 bc ea 98 d1 be 48 a9 7e bf b9 17 3c 3e
       -0.025891056 -0.40936977 -0.9947705 0.18368424
000230 3a 5f d5 bc 20 bc 37 3f a2 7b 75 3f 2c 93 d1 be
       -0.026046384 0.7177143 0.95891774 -0.40932596
000240 a4 71 58 bf 0e 5b 1b be 92 dc f1 3e c5 bf 85 3e
       -0.845484 -0.15171453 0.47238594 0.2612287
000250 3d 04 73 3e 52 73 f6 3e cf 33 26 be e4 08 ed 3d
       0.23732086 0.48134857 -0.16230701 0.115739614
000260 22 83 6f 3e 3c b1 ba bb 92 b1 37 3e 80 f0 2c bc
       0.23389867 -0.0056973975 0.17938831 -0.010555387
000270 9c 4b 67 3e 09 54 8c 3d 71 cc 61 bd 2e 50 f8 3e
       0.22587436 0.06851966 -0.05512661 0.48498672
000280 93 1b 51 be 47 a4 94 bc 34 ea 0e be 45 06 bb 3d
       -0.20420675 -0.01814474 -0.13956529 0.09132055
000290 c8 d2 fd bc 72 90 0c 3d 46 43 e3 ba c9 1f 9a be
       -0.030984297 0.03431744 -0.0017338775 -0.30102375
0002a0 86 f5 c7 be a0 df 26 be cb 9a c2 be 63 cb 33 3d
       -0.39054507 -0.16296244 -0.38008723 0.043895137
0002b0 76 06 47 be cd ef 9d bd e0 9f b6 3e 66 bc 36 3d
       -0.19436058 -0.07711754 0.3566885 0.044613265
0002c0 6b 58 60 be bc b2 10 3d 28 4a 0a be 03 31 78 3e
       -0.21908729 0.035326704 -0.13504851 0.24237446
0002d0 71 ce 0e 3f 19 fe 9d 3e a1 1e 83 3d 40 ef b8 be
       0.55783755 0.30857924 0.064023264 -0.36120033
0002e0 62 82 13 3e 98 79 71 3d 65 3a 08 be 75 f5 7c be
       0.14405206 0.05895385 -0.13303526 -0.2470301
0002f0 f5 23 df bd 80 5f c0 3e 29 77 c0 3e 52 ed 17 3e
       -0.1089553 0.3757286 0.37590912 0.14836624

actor.init_next_embed.0.add_bias._bias f4 [32, 1]
000000 a6 48 8c bc fb a9 55 3e b9 64 22 bb 0e 3e 3e bc
       -0.017124485 0.20865624 -0.0024779274 -0.011611475
000010 25 01 9c 39 80 66 5c 3d 1d 46 e7 bc 77 12 fc ba
       0.0002975549 0.05380869 -0.028231675 -0.0019231577
000020 0e 61 ca 3c 37 c2 78 3c 3b 8c 0e 3b 1d f9 e2 bd
       0.024704482 0.015183023 0.0021751064 -0.11082671
000030 95 79 56 be 22 c6 b6 3e 1e bb 33 3d a0 47 b9 bb
       -0.20944817 0.35698038 0.04387962 -0.0056542903
000040 9f 8f 56 bd 2b 4c 28 bd 4c d0 3e bb fd 00 13 3d
       -0.05238306 -0.041088264 -0.0029115854 0.035889614
000050 8c 47 19 bd 62 aa 7d be 59 af 06 bd 12 b8 20 3e
       -0.037421748 -0.24772027 -0.03288207 0.15695217
000060 cf 45 d6 3e 87 c9 cb bd 92 51 26 bc 9d 9b 8a 3c
       0.41850135 -0.09950548 -0.010151284 0.016919905
000070 a9 4a 94 3d 88 da ca bd 53 d3 80 3d 73 f4 15 3f
       0.07240803 -0.09904963 0.06290307 0.58576125

actor.init_next_embed.2.module.weight f4 [64, 32]
000000 b0 93 10 3d 7b 17 58 be b1 2b f4 3c a0 13 22 be
       0.035297096 -0.21102707 0.02980599 -0.15827799
000010 dd 51 21 bb a0 ae a4 3e d1 53 09 be d5 5b 62 be
       -0.0024615445 0.32164478 -0.1341088 -0.22105344
000020 35 b0 a6 bc 50 f8 f0 bd 26 d8 0f 3e 4b eb bf bd
       -0.020347694 -0.11766112 0.14047298 -0.093710504
000030 98 8d 50 3d d7 35 2a 3d c9 eb da bc 85 c2 e0 3e
       0.050916284 0.041555252 -0.02672376 0.43898407
000040 d4 51 58 be eb 03 3f bc c6 17 41 3e 15 98 82 3d
       -0.21124965 -0.011658649 0.18856725 0.063766636
000050 1b fb d5 bd 8a c8 fe 3d 04 4a 1e bd 18 ab 79 3e
       -0.10448285 0.124405935 -0.038644806 0.24381673
000060 47 f8 b7 be bd a5 ef 3d bf dc a4 be ad e0 57 be
       -0.35931608 0.11701534 -0.32199666 -0.21081801
000070 42 b0 89 be 56 11 3c be 5e 01 2b bf 65 e0 68 bf
       -0.26892287 -0.18365988 -0.6679896 -0.909674
000080 e1 4b bf 3d 99 24 3c 3e 05 91 98 3e e3 70 86 bd
       0.09340645 0.18373336 0.2979814 -0.065645
000090 3b 90 ae be c3 12 b6 be 44 16 0c 3e b3 be 38 3e
       -0.34094414 -0.3556119 0.13680369 0.18041496
0000a0 07 6e af 3d ed 58 7b 3e 10 d7 99 be e4 26 c0 bd
       0.08565908 0.24545641 -0.30046892 -0.09382418
0000b0 29 6a 32 3d 90 42 27 3f bf 14 0d 3e e0 38 7c bb
       0.043558273 0.6533594 0.13777445 -0.0038486049
0000c0 5b 5e ef bd 75 91 08 3e 1f d9 6c 3d 56 f1 65 3e
       -0.11687919 0.13336737 0.05782425 0.22455344
0000d0 73 a2 1f bd 58 0a 08 3e 63 d9 17 3e de 8e a4 3c
       -0.038973283 0.13285196 0.1482902 0.020087656
0000e0 6e 2b 31 be 2e 11 df be da e2 0e bd fe 05 98 be
       -0.17301723 -0.43567795 -0.03488431 -0.29692072
0000f0 29 85 cd 3d f3 13 f3 3d 11 31 ae 3d 82 69 56 3e
       0.10035164 0.118690394 0.085054524 0.20938686
000100 cb 29 23 be 0d ac 0b bf 65 1b 4f bd bf 42 7e 3e
       -0.15933912 -0.54559404 -0.050563235 0.24830149
000110 50 03 d3 3d a9 a8 a3 3c de 1c 9e bc b9 9e 2e 3d
       0.10303366 0.019977884 -0.019300874 0.04263184
000120 da 84 0e 3d 77 11 e2 bd d9 53 95 be 29 54 1b 3e
       0.034794666 -0.110384874 -0.29165533 0.15168823
000130 b2 e8 82 bd 7b 60 8f 3b e5 89 3b 3e 78 14 cd bd
       -0.06392039 0.004375515 0.18314321 -0.1001367
000140 0a 32 12 3e 8f d1 4f 3e e9 aa 08 be 5c 1b a4 3d
       0.14276901 0.20294784 -0.13346447 0.08013031
000150 95 1a 47 be 47 a0 a4 3d fb de 1a 3e 4e f5 8d 3e
       -0.19443734 0.08038383 0.15124123 0.27726215
000160 8b e1 a4 be 03 57 dc bd fd 4e a3 3e a8 26 87 3e
       -0.32203326 -0.10758784 0.318962 0.2639668
000170 81 52 e8 bd ea 6a 16 be dc 13 2b be 5b b7 a4 bd
       -0.11343861 -0.14689222 -0.16706795 -0.08042785
000180 56 0b f8 bd cc d8 27 bd d0 28 87 be a3 61 05 be
       -0.12111537 -0.040978238 -0.26398325 -0.13025527
000190 15 9b d3 3e 1a 4d 8f 3e e7 7f ec 3d 5f b8 9f 3e
       0.41329256 0.2798851 0.11547833 0.3119535
0001a0 65 ba 32 be 59 31 4b 3e a8 68 4d 3d db 1a 57 bb
       -0.17453916 0.19843043 0.050148636 -0.0032822404
0001b0 7a b2 5a 3d fb db 8e 3e 8d e0 70 3e 3e d3 9e 3e
       0.053392865 0.27902207 0.2352316 0.3102054
0001c0 49 26 5a bd 25 c6 35 3e 03 f7 a5 bb 00 b2 3f 3e
       -0.053259168 0.17751367 -0.0050648465 0.18720245
0001d0 50 c8 d7 3c 4d 01 e6 bd 4a cb 52 3e 1a 50 77 3e
       0.026340634 -0.11230717 0.20585361 0.2415165
0001e0 46 5e 1a be f0 31 0b be 9b 83 b2 3d 92 61 c7 3e
       -0.15075025 -0.13593268 0.08716508 0.38941628
0001f0 b8 6a 31 be b5 23 40 3e 04 44 cd 3d 32 7f 17 bf
       -0.17325866 0.18763621 0.100227386 -0.5917846
000200 e3 d3 14 3d 54 3c 14 3d 3c 34 77 3d 0f 4f 45 3e
       0.036334883 0.036190346 0.06035255 0.1926844
000210 a3 30 39 bd fd 89 e9 3d 34 cd 6b 3d 2c 14 a0 be
       -0.0452124 0.11403272 0.057568744 -0.3126539
000220 29 18 28 3e 3f 02 81 3e 4f 36 f4 3d f6 0b bc bd
       0.16415466 0.25197026 0.11924421 -0.09181969
000230 ed 10 bf 3d 81 97 87 be 44 e5 07 3e 9b 1a 40 be
       0.093294 -0.26482776 0.13271052 -0.18760149
000240 84 0a 00 bd e3 ca 7a 3e 05 5a 50 be 86 b6 f7 3d
       -0.03126003 0.24491458 -0.2034684 0.120953605
000250 a9 2b 5c 3e 58 c8 84 be a7 bc 1e 3e e4 4c 0e 3f
       0.2150103 -0.259341 0.15501653 0.55586076
000260 5a 4e c7 be d0 d8 90 3d ea 1b 84 3a 68 99 8d be
       -0.38926965 0.07072604 0.001007912 -0.27656102
000270 93 83 ae be 5d 99 ce 3d 58 e6 93 3e bb c8 cf be
       -0.34084758 0.100878455 0.28886676 -0.40582833
000280 c4 ef 40 3c 15 a4 1c bd de 78 80 bc 87 c4 d3 3c
       0.011775915 -0.03824242 -0.015682634 0.025850547
000290 d3 94 70 3e 6b 93 4e bf 8b 9e 68 be 3b c4 02 3d
       0.23494272 -0.8069369 -0.2271673 0.03192542
0002a0 68 52 f3 3d 14 87 da b9 90 cd b7 3e c8 41 45 bd
       0.11880952 -0.0004168084 0.3589902 -0.048158437
0002b0 8e 2e e3 3d 85 db 25 3f 89 76 8b 3e 26 98 09 3e
       0.11092864 0.64788085 0.27238873 0.13436946
0002c0 f2 dd 8d 3c 75 5d 70 3e 5b 48 50 3e 83 2c bb bc
       0.017317746 0.23473151 0.20340101 -0.022848373
0002d0 c4 27 b0 be b4 eb 4e be 85 0e 3f be 01 cf c7 bc
       -0.3440534 -0.20207101 -0.18657883 -0.0243907
0002e0 a1 14 18 be ad 10 39 3e 02 cd cd 3d 87 07 08 be
       -0.1485162 0.18072768 0.10048868 -0.13284121
0002f0 e2 19 03 be ce da 8f bb 68 96 4e 3e 1f 26 a5 3e
       -0.12802842 -0.004390097 0.20174563 0.32255647
000300 63 ba 95 3c d3 16 0c 3f 6b 83 14 be 28 14 27 3e
       0.018277353 0.54722327 -0.14503257 0.16316283
000310 6f 06 9a bd 53 a4 21 be 39 88 f2 bd 21 c5 83 bd
       -0.07520758 -0.15785341 -0.11842389 -0.06434084
000320 7c 86 bf be f1 fb 27 be db f0 46 be 9d 0d 71 be
       -0.3740729 -0.16404702 -0.19427817 -0.2354035
000330 c7 32 0c 3d 1e 76 bb bd cd 01 4a be 48 0b 3f 3e
       0.034228113 -0.091533884 -0.1972725 0.18656647
000340 9c ce 0d be 55 5a 19 3e f8 f4 bc be 99 8a 8d 3e
       -0.13848346 0.14975865 -0.36905646 0.27644804
000350 67 ae 4d 3e 1a 0d 65 3d fb 06 9f bd eb 71 e7 bc
       0.2008606 0.055920698 -0.07765003 -0.028252563
000360 d6 db 7a 3e 5d 87 f8 3c 12 71 41 3e 45 62 44 be
       0.24497923 0.030337984 0.18890789 -0.19178112
000370 f0 4f 86 bd 41 eb 13 bc fa ec 21 bd b2 d4 bd 3d
       -0.065582156 -0.009028257 -0.03953264 0.09269084
000380 cc 02 c9 3c f6 ec c2 3c 53 74 68 bd 68 04 45 3e
       0.024537466 0.023794632 -0.05675156 0.19239962
000390 7d 52 fb 3d 7c 1f ce 3e f3 2f 8c 3e 4f 9d 14 bd
       0.12271593 0.40258396 0.27380332 -0.036282834
0003a0 9a 39 ff bd 91 f3 9a be 2d 4c 99 3e 7d 26 7f 3c
       -0.124621585 -0.3026395 0.2994093 0.015573141
0003b0 96 e4 33 3d 7c 8e c7 be af 14 ad 3c 65 07 91 be
       0.04391917 -0.38975894 0.021128027 -0.28325954
0003c0 df f9 4a be 3b c5 2d 3e fb 4d c2 be 79 50 5f 3e
       -0.19821881 0.16969769 -0.3795012 0.21808042
0003d0 0a 5c 81 be 17 4e ec 3d 18 d6 b2 bd 41 45 5d 3e
       -0.25265533 0.11538332 -0.087322414 0.2160845
0003e0 f5 32 ca bd 83 3a 72 3e 7d 4e 1c be db 91 e1 bd
       -0.098730005 0.23655133 -0.15264316 -0.11014148
0003f0 68 c4 1c be 80 71 bf 3d ed 86 b0 3d 5b ba 10 3f
       -0.15309298 0.0934782 0.08619485 0.56534356

actor.init_next_embed.2.add_bias._bias f4 [64, 1]
000000 73 a0 69 be b1 eb d2 3e dd fe b8 bc a9 7f 1b be
       -0.22815113 0.41195443 -0.022582466 -0.15185417
000010 a2 32 ec be 81 73 8a bd bb 95 8d 3e 0b 39 e7 3d
       -0.4613238 -0.06760312 0.27653298 0.11290177
000020 d3 ea 8c be fe 79 24 bf 8b 16 ee 3d 17 7e 08 3f
       -0.27522907 -0.64248645 0.116253935 0.533174
000030 24 f1 09 bf 18 d2 07 3e 3d f0 00 3f 16 18 c0 3e
       -0.53883576 0.13263738 0.50366575 0.37518376
000040 74 ba d0 3e 05 fd fc 3b 2c 83 d4 3e 79 43 0d be
       0.40767252 0.007720592 0.41506326 -0.1379527
000050 7a 7c 7f bf 86 ca d7 be 16 09 bc 3d 3b bf 1f bf
       -0.9979931 -0.421467 0.091814205 -0.6240117
000060 87 a3 1f 3d 7d ea 8a 3e 59 f5 ab 3e d3 79 fd bd
       0.03897431 0.27132025 0.33585623 -0.12376752
000070 f3 05 3e 3f cb 74 f6 3e cc b2 36 3f de fe d9 be
       0.7422783 0.4813598 0.7136657 -0.4257726
000080 1c b8 26 3f 3f 38 f7 bc a3 00 a2 bd 60 a6 9a be
       0.6512468 -0.030178187 -0.07910278 -0.3020506
000090 d2 77 0c 3e 5f e9 ff bc 39 cf 16 3f a0 94 ee 3e
       0.13717583 -0.03123921 0.58909947 0.46597767
0000a0 50 5f 31 be d0 e8 3c 3d 9c 4b 58 3e a2 1a 29 3f
       -0.17321515 0.046120465 0.21122593 0.66056263
0000b0 a0 d9 48 3d f5 03 2d bf e6 70 00 bf 49 1d 26 be
       0.04903567 -0.6758416 -0.5017227 -0.16222109
0000c0 93 70 e4 3d 28 d1 13 bd a5 b1 23 bf 80 e6 06 3f
       0.11154284 -0.03608814 -0.6394294 0.52695465
0000d0 59 a8 47 3e 38 84 c9 3d f5 e3 8c be 89 08 29 be
       0.19497813 0.09839672 -0.27517667 -0.16507162
0000e0 c0 ef 3f 3e d8 fd 16 3f 07 0b 10 bd 3e 6d e3 3e
       0.18743801 0.58981085 -0.035166766 0.44419283
0000f0 78 ab 41 3f b3 f2 6e 3e 9f 19 1a bf 10 82 a4 ba
       0.75652266 0.2333477 -0.60195345 -0.0012550969
